…
__________________________________________________________________________________________________
 Layer (type)                   Output Shape         Param #     Connected to                     
==================================================================================================
 encoder_past_inputs (InputLaye  [(None, 672, 31)]   0           []                               
 r)                                                                                               
                                                                                                  
 dense (Dense)                  (None, 672, 64)      2048        ['encoder_past_inputs[0][0]']    
                                                                                                  
 dropout (Dropout)              (None, 672, 64)      0           ['dense[0][0]']                  
                                                                                                  
 bidirectional (Bidirectional)  (None, 672, 32)      7872        ['dropout[0][0]']                
                                                                                                  
 dropout_1 (Dropout)            (None, 672, 32)      0           ['bidirectional[0][0]']          
                                                                                                  
 dense_1 (Dense)                (None, 672, 64)      2112        ['dropout_1[0][0]']              
                                                                                                  
 dense_2 (Dense)                (None, 672, 64)      2112        ['dropout_1[0][0]']              
                                                                                                  
 dense_3 (Dense)                (None, 672, 64)      4160        ['dropout[0][0]']                
                                                                                                  
 multiply (Multiply)            (None, 672, 64)      0           ['dense_1[0][0]',                
                                                                  'dense_2[0][0]']                
                                                                                                  
 add (Add)                      (None, 672, 64)      0           ['dense_3[0][0]',                
                                                                  'multiply[0][0]']               
                                                                                                  
 layer_normalization (LayerNorm  (None, 672, 64)     128         ['add[0][0]']                    
 alization)                                                                                       
                                                                                                  
 bidirectional_1 (Bidirectional  (None, 672, 32)     7872        ['layer_normalization[0][0]']    
 )                                                                                                
                                                                                                  
 dropout_2 (Dropout)            (None, 672, 32)      0           ['bidirectional_1[0][0]']        
                                                                                                  
 dense_4 (Dense)                (None, 672, 64)      2112        ['dropout_2[0][0]']              
                                                                                                  
 dense_5 (Dense)                (None, 672, 64)      2112        ['dropout_2[0][0]']              
                                                                                                  
 dense_6 (Dense)                (None, 672, 64)      4160        ['dropout[0][0]']                
                                                                                                  
 multiply_1 (Multiply)          (None, 672, 64)      0           ['dense_4[0][0]',                
                                                                  'dense_5[0][0]']                
                                                                                                  
 add_1 (Add)                    (None, 672, 64)      0           ['dense_6[0][0]',                
                                                                  'multiply_1[0][0]']             
                                                                                                  
 layer_normalization_1 (LayerNo  (None, 672, 64)     128         ['add_1[0][0]']                  
 rmalization)                                                                                     
                                                                                                  
 bidirectional_2 (Bidirectional  [(None, 672, 32),   7872        ['layer_normalization_1[0][0]']  
 )                               (None, 16),                                                      
                                 (None, 16)]                                                      
                                                                                                  
 dropout_3 (Dropout)            (None, 672, 32)      0           ['bidirectional_2[0][0]']        
                                                                                                  
 dense_7 (Dense)                (None, 672, 64)      2112        ['dropout_3[0][0]']              
                                                                                                  
 dense_8 (Dense)                (None, 672, 64)      2112        ['dropout_3[0][0]']              
                                                                                                  
 dense_9 (Dense)                (None, 672, 64)      4160        ['dropout[0][0]']                
                                                                                                  
 multiply_2 (Multiply)          (None, 672, 64)      0           ['dense_7[0][0]',                
                                                                  'dense_8[0][0]']                
                                                                                                  
 add_2 (Add)                    (None, 672, 64)      0           ['dense_9[0][0]',                
                                                                  'multiply_2[0][0]']             
                                                                                                  
 layer_normalization_2 (LayerNo  (None, 672, 64)     128         ['add_2[0][0]']                  
 rmalization)                                                                                     
                                                                                                  
 time_distributed (TimeDistribu  (None, 672, 64)     4160        ['layer_normalization_2[0][0]']  
 ted)                                                                                             
                                                                                                  
 activation (Activation)        (None, 672, 64)      0           ['time_distributed[0][0]']       
                                                                                                  
 time_distributed_1 (TimeDistri  (None, 672, 64)     4160        ['activation[0][0]']             
 buted)                                                                                           
                                                                                                  
 decoder_1_inputs (InputLayer)  [(None, 96, 10)]     0           []                               
                                                                                                  
 dropout_4 (Dropout)            (None, 672, 64)      0           ['time_distributed_1[0][0]']     
                                                                                                  
 decoder_2_inputs (InputLayer)  [(None, 96, 10)]     0           []                               
                                                                                                  
 decoder_3_inputs (InputLayer)  [(None, 96, 10)]     0           []                               
…
 decoder_4_inputs (InputLayer)  [(None, 96, 10)]     0           []                               
                                                                                                  
 decoder_5_inputs (InputLayer)  [(None, 96, 10)]     0           []                               
                                                                                                  
 decoder_6_inputs (InputLayer)  [(None, 96, 10)]     0           []                               
                                                                                                  
 dense_39 (Dense)               (None, 96, 64)       704         ['decoder_1_inputs[0][0]']       
                                                                                                  
 time_distributed_2 (TimeDistri  (None, 672, 64)     4160        ['dropout_4[0][0]']              
 buted)                                                                                           
                                                                                                  
 time_distributed_3 (TimeDistri  (None, 672, 64)     4160        ['dropout_4[0][0]']              
 buted)                                                                                           
                                                                                                  
 dense_121 (Dense)              (None, 96, 64)       704         ['decoder_2_inputs[0][0]']       
                                                                                                  
 dense_203 (Dense)              (None, 96, 64)       704         ['decoder_3_inputs[0][0]']       
                                                                                                  
 dense_285 (Dense)              (None, 96, 64)       704         ['decoder_4_inputs[0][0]']       
                                                                                                  
 dense_367 (Dense)              (None, 96, 64)       704         ['decoder_5_inputs[0][0]']       
                                                                                                  
 dense_449 (Dense)              (None, 96, 64)       704         ['decoder_6_inputs[0][0]']       
                                                                                                  
 dropout_11 (Dropout)           (None, 96, 64)       0           ['dense_39[0][0]']               
                                                                                                  
 time_distributed_4 (TimeDistri  (None, 672, 64)     4160        ['layer_normalization_2[0][0]']  
 buted)                                                                                           
                                                                                                  
 multiply_3 (Multiply)          (None, 672, 64)      0           ['time_distributed_2[0][0]',     
                                                                  'time_distributed_3[0][0]']     
                                                                                                  
 dropout_33 (Dropout)           (None, 96, 64)       0           ['dense_121[0][0]']              
                                                                                                  
 dropout_55 (Dropout)           (None, 96, 64)       0           ['dense_203[0][0]']              
                                                                                                  
 dropout_77 (Dropout)           (None, 96, 64)       0           ['dense_285[0][0]']              
                                                                                                  
 dropout_99 (Dropout)           (None, 96, 64)       0           ['dense_367[0][0]']              
                                                                                                  
 dropout_121 (Dropout)          (None, 96, 64)       0           ['dense_449[0][0]']              
                                                                                                  
 bidirectional_3 (Bidirectional  (None, 96, 32)      7872        ['dropout_11[0][0]',             
 )                                                                'bidirectional_2[0][1]',        
                                                                  'bidirectional_2[0][2]']        
                                                                                                  
 add_3 (Add)                    (None, 672, 64)      0           ['time_distributed_4[0][0]',     
                                                                  'multiply_3[0][0]']             
                                                                                                  
 bidirectional_9 (Bidirectional  (None, 96, 32)      7872        ['dropout_33[0][0]',             
 )                                                                'bidirectional_2[0][1]',        
                                                                  'bidirectional_2[0][2]']        
                                                                                                  
 bidirectional_15 (Bidirectiona  (None, 96, 32)      7872        ['dropout_55[0][0]',             
 l)                                                               'bidirectional_2[0][1]',        
                                                                  'bidirectional_2[0][2]']        
                                                                                                  
 bidirectional_21 (Bidirectiona  (None, 96, 32)      7872        ['dropout_77[0][0]',             
 l)                                                               'bidirectional_2[0][1]',        
                                                                  'bidirectional_2[0][2]']        
                                                                                                  
 bidirectional_27 (Bidirectiona  (None, 96, 32)      7872        ['dropout_99[0][0]',             
 l)                                                               'bidirectional_2[0][1]',        
                                                                  'bidirectional_2[0][2]']        
                                                                                                  
 bidirectional_33 (Bidirectiona  (None, 96, 32)      7872        ['dropout_121[0][0]',            
 l)                                                               'bidirectional_2[0][1]',        
                                                                  'bidirectional_2[0][2]']        
                                                                                                  
 dropout_12 (Dropout)           (None, 96, 32)       0           ['bidirectional_3[0][0]']        
                                                                                                  
 layer_normalization_3 (LayerNo  (None, 672, 64)     128         ['add_3[0][0]']                  
 rmalization)                                                                                     
                                                                                                  
 dropout_34 (Dropout)           (None, 96, 32)       0           ['bidirectional_9[0][0]']        
                                                                                                  
 dropout_56 (Dropout)           (None, 96, 32)       0           ['bidirectional_15[0][0]']       
                                                                                                  
 dropout_78 (Dropout)           (None, 96, 32)       0           ['bidirectional_21[0][0]']       
                                                                                                  
 dropout_100 (Dropout)          (None, 96, 32)       0           ['bidirectional_27[0][0]']       
                                                                                                  
 dropout_122 (Dropout)          (None, 96, 32)       0           ['bidirectional_33[0][0]']       
                                                                                                  
 dense_40 (Dense)               (None, 96, 64)       2112        ['dropout_12[0][0]']             
                                                                                                  
 dense_41 (Dense)               (None, 96, 64)       2112        ['dropout_12[0][0]']             
                                                                                                  
 encoder_1_selfMHA-1 (MultiHead  (None, 672, 64)     64296       ['layer_normalization_3[0][0]',  
 Attention)                                                       'layer_normalization_3[0][0]',  
                                                                  'layer_normalization_3[0][0]']  
                                                                                                  
 dense_122 (Dense)              (None, 96, 64)       2112        ['dropout_34[0][0]']             
                                                                                                  
 dense_123 (Dense)              (None, 96, 64)       2112        ['dropout_34[0][0]']             
                                                                                                  
 dense_204 (Dense)              (None, 96, 64)       2112        ['dropout_56[0][0]']             
                                                                                                  
 dense_205 (Dense)              (None, 96, 64)       2112        ['dropout_56[0][0]']             
                                                                                                  
 dense_286 (Dense)              (None, 96, 64)       2112        ['dropout_78[0][0]']             
                                                                                                  
 dense_287 (Dense)              (None, 96, 64)       2112        ['dropout_78[0][0]']             
                                                                                                  
 dense_368 (Dense)              (None, 96, 64)       2112        ['dropout_100[0][0]']            
                                                                                                  
 dense_369 (Dense)              (None, 96, 64)       2112        ['dropout_100[0][0]']            
                                                                                                  
 dense_450 (Dense)              (None, 96, 64)       2112        ['dropout_122[0][0]']            
                                                                                                  
 dense_451 (Dense)              (None, 96, 64)       2112        ['dropout_122[0][0]']            
                                                                                                  
 dense_42 (Dense)               (None, 96, 64)       4160        ['dropout_11[0][0]']             
                                                                                                  
 multiply_10 (Multiply)         (None, 96, 64)       0           ['dense_40[0][0]',               
                                                                  'dense_41[0][0]']               
                                                                                                  
 dropout_5 (Dropout)            (None, 672, 64)      0           ['encoder_1_selfMHA-1[0][0]']    
                                                                                                  
 dense_124 (Dense)              (None, 96, 64)       4160        ['dropout_33[0][0]']             
                                                                                                  
 multiply_31 (Multiply)         (None, 96, 64)       0           ['dense_122[0][0]',              
                                                                  'dense_123[0][0]']              
                                                                                                  
 dense_206 (Dense)              (None, 96, 64)       4160        ['dropout_55[0][0]']             
                                                                                                  
 multiply_52 (Multiply)         (None, 96, 64)       0           ['dense_204[0][0]',              
                                                                  'dense_205[0][0]']              
                                                                                                  
 dense_288 (Dense)              (None, 96, 64)       4160        ['dropout_77[0][0]']             
                                                                                                  
 multiply_73 (Multiply)         (None, 96, 64)       0           ['dense_286[0][0]',              
                                                                  'dense_287[0][0]']              
                                                                                                  
 dense_370 (Dense)              (None, 96, 64)       4160        ['dropout_99[0][0]']             
                                                                                                  
 multiply_94 (Multiply)         (None, 96, 64)       0           ['dense_368[0][0]',              
                                                                  'dense_369[0][0]']              
                                                                                                  
 dense_452 (Dense)              (None, 96, 64)       4160        ['dropout_121[0][0]']            
                                                                                                  
 multiply_115 (Multiply)        (None, 96, 64)       0           ['dense_450[0][0]',              
                                                                  'dense_451[0][0]']              
                                                                                                  
 add_10 (Add)                   (None, 96, 64)       0           ['dense_42[0][0]',               
                                                                  'multiply_10[0][0]']            
                                                                                                  
 dense_15 (Dense)               (None, 672, 64)      4160        ['dropout_5[0][0]']              
                                                                                                  
 dense_16 (Dense)               (None, 672, 64)      4160        ['dropout_5[0][0]']              
                                                                                                  
 add_31 (Add)                   (None, 96, 64)       0           ['dense_124[0][0]',              
                                                                  'multiply_31[0][0]']            
                                                                                                  
 add_52 (Add)                   (None, 96, 64)       0           ['dense_206[0][0]',              
                                                                  'multiply_52[0][0]']            
                                                                                                  
 add_73 (Add)                   (None, 96, 64)       0           ['dense_288[0][0]',              
                                                                  'multiply_73[0][0]']            
                                                                                                  
 add_94 (Add)                   (None, 96, 64)       0           ['dense_370[0][0]',              
                                                                  'multiply_94[0][0]']            
                                                                                                  
 add_115 (Add)                  (None, 96, 64)       0           ['dense_452[0][0]',              
                                                                  'multiply_115[0][0]']           
                                                                                                  
 layer_normalization_10 (LayerN  (None, 96, 64)      128         ['add_10[0][0]']                 
 ormalization)                                                                                    
                                                                                                  
 dense_17 (Dense)               (None, 672, 64)      4160        ['layer_normalization_3[0][0]']  
                                                                                                  
 multiply_4 (Multiply)          (None, 672, 64)      0           ['dense_15[0][0]',               
                                                                  'dense_16[0][0]']               
                                                                                                  
 layer_normalization_31 (LayerN  (None, 96, 64)      128         ['add_31[0][0]']                 
 ormalization)                                                                                    
                                                                                                  
 layer_normalization_52 (LayerN  (None, 96, 64)      128         ['add_52[0][0]']                 
 ormalization)                                                                                    
                                                                                                  
 layer_normalization_73 (LayerN  (None, 96, 64)      128         ['add_73[0][0]']                 
 ormalization)                                                                                    
                                                                                                  
 layer_normalization_94 (LayerN  (None, 96, 64)      128         ['add_94[0][0]']                 
 ormalization)                                                                                    
                                                                                                  
 layer_normalization_115 (Layer  (None, 96, 64)      128         ['add_115[0][0]']                
 Normalization)                                                                                   
                                                                                                  
 bidirectional_4 (Bidirectional  (None, 96, 32)      7872        ['layer_normalization_10[0][0]', 
 )                                                                'bidirectional_2[0][1]',        
                                                                  'bidirectional_2[0][2]']        
                                                                                                  
 add_4 (Add)                    (None, 672, 64)      0           ['dense_17[0][0]',               
                                                                  'multiply_4[0][0]']             
                                                                                                  
 bidirectional_10 (Bidirectiona  (None, 96, 32)      7872        ['layer_normalization_31[0][0]', 
 l)                                                               'bidirectional_2[0][1]',        
                                                                  'bidirectional_2[0][2]']        
                                                                                                  
 bidirectional_16 (Bidirectiona  (None, 96, 32)      7872        ['layer_normalization_52[0][0]', 
 l)                                                               'bidirectional_2[0][1]',        
                                                                  'bidirectional_2[0][2]']        
                                                                                                  
 bidirectional_22 (Bidirectiona  (None, 96, 32)      7872        ['layer_normalization_73[0][0]', 
 l)                                                               'bidirectional_2[0][1]',        
                                                                  'bidirectional_2[0][2]']        
                                                                                                  
 bidirectional_28 (Bidirectiona  (None, 96, 32)      7872        ['layer_normalization_94[0][0]', 
 l)                                                               'bidirectional_2[0][1]',        
                                                                  'bidirectional_2[0][2]']        
                                                                                                  
 bidirectional_34 (Bidirectiona  (None, 96, 32)      7872        ['layer_normalization_115[0][0]',
 l)                                                               'bidirectional_2[0][1]',        
                                                                  'bidirectional_2[0][2]']        
                                                                                                  
 dropout_13 (Dropout)           (None, 96, 32)       0           ['bidirectional_4[0][0]']        
                                                                                                  
 layer_normalization_4 (LayerNo  (None, 672, 64)     128         ['add_4[0][0]']                  
 rmalization)                                                                                     
                                                                                                  
 dropout_35 (Dropout)           (None, 96, 32)       0           ['bidirectional_10[0][0]']       
                                                                                                  
 dropout_57 (Dropout)           (None, 96, 32)       0           ['bidirectional_16[0][0]']       
                                                                                                  
 dropout_79 (Dropout)           (None, 96, 32)       0           ['bidirectional_22[0][0]']       
                                                                                                  
 dropout_101 (Dropout)          (None, 96, 32)       0           ['bidirectional_28[0][0]']       
                                                                                                  
 dropout_123 (Dropout)          (None, 96, 32)       0           ['bidirectional_34[0][0]']       
                                                                                                  
 dense_43 (Dense)               (None, 96, 64)       2112        ['dropout_13[0][0]']             
                                                                                                  
 dense_44 (Dense)               (None, 96, 64)       2112        ['dropout_13[0][0]']             
                                                                                                  
 time_distributed_5 (TimeDistri  (None, 672, 64)     4160        ['layer_normalization_4[0][0]']  
 buted)                                                                                           
                                                                                                  
 dense_125 (Dense)              (None, 96, 64)       2112        ['dropout_35[0][0]']             
                                                                                                  
 dense_126 (Dense)              (None, 96, 64)       2112        ['dropout_35[0][0]']             
                                                                                                  
 dense_207 (Dense)              (None, 96, 64)       2112        ['dropout_57[0][0]']             
                                                                                                  
 dense_208 (Dense)              (None, 96, 64)       2112        ['dropout_57[0][0]']             
                                                                                                  
 dense_289 (Dense)              (None, 96, 64)       2112        ['dropout_79[0][0]']             
                                                                                                  
 dense_290 (Dense)              (None, 96, 64)       2112        ['dropout_79[0][0]']             
                                                                                                  
 dense_371 (Dense)              (None, 96, 64)       2112        ['dropout_101[0][0]']            
                                                                                                  
 dense_372 (Dense)              (None, 96, 64)       2112        ['dropout_101[0][0]']            
                                                                                                  
 dense_453 (Dense)              (None, 96, 64)       2112        ['dropout_123[0][0]']            
                                                                                                  
 dense_454 (Dense)              (None, 96, 64)       2112        ['dropout_123[0][0]']            
                                                                                                  
 dense_45 (Dense)               (None, 96, 64)       4160        ['dropout_11[0][0]']             
                                                                                                  
 multiply_11 (Multiply)         (None, 96, 64)       0           ['dense_43[0][0]',               
                                                                  'dense_44[0][0]']               
                                                                                                  
 activation_1 (Activation)      (None, 672, 64)      0           ['time_distributed_5[0][0]']     
                                                                                                  
 dense_127 (Dense)              (None, 96, 64)       4160        ['dropout_33[0][0]']             
                                                                                                  
 multiply_32 (Multiply)         (None, 96, 64)       0           ['dense_125[0][0]',              
                                                                  'dense_126[0][0]']              
                                                                                                  
 dense_209 (Dense)              (None, 96, 64)       4160        ['dropout_55[0][0]']             
                                                                                                  
 multiply_53 (Multiply)         (None, 96, 64)       0           ['dense_207[0][0]',              
                                                                  'dense_208[0][0]']              
                                                                                                  
 dense_291 (Dense)              (None, 96, 64)       4160        ['dropout_77[0][0]']             
                                                                                                  
 multiply_74 (Multiply)         (None, 96, 64)       0           ['dense_289[0][0]',              
                                                                  'dense_290[0][0]']              
                                                                                                  
 dense_373 (Dense)              (None, 96, 64)       4160        ['dropout_99[0][0]']             
                                                                                                  
 multiply_95 (Multiply)         (None, 96, 64)       0           ['dense_371[0][0]',              
                                                                  'dense_372[0][0]']              
                                                                                                  
 dense_455 (Dense)              (None, 96, 64)       4160        ['dropout_121[0][0]']            
                                                                                                  
 multiply_116 (Multiply)        (None, 96, 64)       0           ['dense_453[0][0]',              
                                                                  'dense_454[0][0]']              
                                                                                                  
 add_11 (Add)                   (None, 96, 64)       0           ['dense_45[0][0]',               
                                                                  'multiply_11[0][0]']            
                                                                                                  
 time_distributed_6 (TimeDistri  (None, 672, 64)     4160        ['activation_1[0][0]']           
 buted)                                                                                           
                                                                                                  
 add_32 (Add)                   (None, 96, 64)       0           ['dense_127[0][0]',              
                                                                  'multiply_32[0][0]']            
                                                                                                  
 add_53 (Add)                   (None, 96, 64)       0           ['dense_209[0][0]',              
                                                                  'multiply_53[0][0]']            
                                                                                                  
 add_74 (Add)                   (None, 96, 64)       0           ['dense_291[0][0]',              
                                                                  'multiply_74[0][0]']            
                                                                                                  
 add_95 (Add)                   (None, 96, 64)       0           ['dense_373[0][0]',              
                                                                  'multiply_95[0][0]']            
                                                                                                  
 add_116 (Add)                  (None, 96, 64)       0           ['dense_455[0][0]',              
                                                                  'multiply_116[0][0]']           
                                                                                                  
 layer_normalization_11 (LayerN  (None, 96, 64)      128         ['add_11[0][0]']                 
 ormalization)                                                                                    
                                                                                                  
 dropout_6 (Dropout)            (None, 672, 64)      0           ['time_distributed_6[0][0]']     
                                                                                                  
 layer_normalization_32 (LayerN  (None, 96, 64)      128         ['add_32[0][0]']                 
 ormalization)                                                                                    
                                                                                                  
 layer_normalization_53 (LayerN  (None, 96, 64)      128         ['add_53[0][0]']                 
 ormalization)                                                                                    
                                                                                                  
 layer_normalization_74 (LayerN  (None, 96, 64)      128         ['add_74[0][0]']                 
 ormalization)                                                                                    
                                                                                                  
 layer_normalization_95 (LayerN  (None, 96, 64)      128         ['add_95[0][0]']                 
 ormalization)                                                                                    
                                                                                                  
 layer_normalization_116 (Layer  (None, 96, 64)      128         ['add_116[0][0]']                
 Normalization)                                                                                   
                                                                                                  
 bidirectional_5 (Bidirectional  [(None, 96, 32),    7872        ['layer_normalization_11[0][0]', 
 )                               (None, 16),                      'bidirectional_2[0][1]',        
                                 (None, 16)]                      'bidirectional_2[0][2]']        
                                                                                                  
 time_distributed_7 (TimeDistri  (None, 672, 64)     4160        ['dropout_6[0][0]']              
 buted)                                                                                           
                                                                                                  
 time_distributed_8 (TimeDistri  (None, 672, 64)     4160        ['dropout_6[0][0]']              
 buted)                                                                                           
                                                                                                  
 bidirectional_11 (Bidirectiona  [(None, 96, 32),    7872        ['layer_normalization_32[0][0]', 
 l)                              (None, 16),                      'bidirectional_2[0][1]',        
…
                                 (None, 16)]                      'bidirectional_2[0][2]']        
                                                                                                  
 bidirectional_35 (Bidirectiona  [(None, 96, 32),    7872        ['layer_normalization_116[0][0]',
 l)                              (None, 16),                      'bidirectional_2[0][1]',        
                                 (None, 16)]                      'bidirectional_2[0][2]']        
                                                                                                  
 dropout_14 (Dropout)           (None, 96, 32)       0           ['bidirectional_5[0][0]']        
                                                                                                  
 time_distributed_9 (TimeDistri  (None, 672, 64)     4160        ['layer_normalization_4[0][0]']  
 buted)                                                                                           
                                                                                                  
 multiply_5 (Multiply)          (None, 672, 64)      0           ['time_distributed_7[0][0]',     
                                                                  'time_distributed_8[0][0]']     
                                                                                                  
 dropout_36 (Dropout)           (None, 96, 32)       0           ['bidirectional_11[0][0]']       
                                                                                                  
 dropout_58 (Dropout)           (None, 96, 32)       0           ['bidirectional_17[0][0]']       
                                                                                                  
 dropout_80 (Dropout)           (None, 96, 32)       0           ['bidirectional_23[0][0]']       
                                                                                                  
 dropout_102 (Dropout)          (None, 96, 32)       0           ['bidirectional_29[0][0]']       
                                                                                                  
 dropout_124 (Dropout)          (None, 96, 32)       0           ['bidirectional_35[0][0]']       
                                                                                                  
 dense_46 (Dense)               (None, 96, 64)       2112        ['dropout_14[0][0]']             
                                                                                                  
 dense_47 (Dense)               (None, 96, 64)       2112        ['dropout_14[0][0]']             
                                                                                                  
 add_5 (Add)                    (None, 672, 64)      0           ['time_distributed_9[0][0]',     
                                                                  'multiply_5[0][0]']             
                                                                                                  
 dense_128 (Dense)              (None, 96, 64)       2112        ['dropout_36[0][0]']             
                                                                                                  
 dense_129 (Dense)              (None, 96, 64)       2112        ['dropout_36[0][0]']             
                                                                                                  
 dense_210 (Dense)              (None, 96, 64)       2112        ['dropout_58[0][0]']             
                                                                                                  
 dense_211 (Dense)              (None, 96, 64)       2112        ['dropout_58[0][0]']             
                                                                                                  
 dense_292 (Dense)              (None, 96, 64)       2112        ['dropout_80[0][0]']             
                                                                                                  
 dense_293 (Dense)              (None, 96, 64)       2112        ['dropout_80[0][0]']             
                                                                                                  
 dense_374 (Dense)              (None, 96, 64)       2112        ['dropout_102[0][0]']            
                                                                                                  
 dense_375 (Dense)              (None, 96, 64)       2112        ['dropout_102[0][0]']            
                                                                                                  
 dense_456 (Dense)              (None, 96, 64)       2112        ['dropout_124[0][0]']            
                                                                                                  
 dense_457 (Dense)              (None, 96, 64)       2112        ['dropout_124[0][0]']            
                                                                                                  
 dense_48 (Dense)               (None, 96, 64)       4160        ['dropout_11[0][0]']             
                                                                                                  
 multiply_12 (Multiply)         (None, 96, 64)       0           ['dense_46[0][0]',               
                                                                  'dense_47[0][0]']               
                                                                                                  
 layer_normalization_5 (LayerNo  (None, 672, 64)     128         ['add_5[0][0]']                  
 rmalization)                                                                                     
                                                                                                  
 dense_130 (Dense)              (None, 96, 64)       4160        ['dropout_33[0][0]']             
                                                                                                  
 multiply_33 (Multiply)         (None, 96, 64)       0           ['dense_128[0][0]',              
                                                                  'dense_129[0][0]']              
                                                                                                  
 dense_212 (Dense)              (None, 96, 64)       4160        ['dropout_55[0][0]']             
                                                                                                  
 multiply_54 (Multiply)         (None, 96, 64)       0           ['dense_210[0][0]',              
                                                                  'dense_211[0][0]']              
                                                                                                  
 dense_294 (Dense)              (None, 96, 64)       4160        ['dropout_77[0][0]']             
                                                                                                  
 multiply_75 (Multiply)         (None, 96, 64)       0           ['dense_292[0][0]',              
                                                                  'dense_293[0][0]']              
                                                                                                  
 dense_376 (Dense)              (None, 96, 64)       4160        ['dropout_99[0][0]']             
                                                                                                  
 multiply_96 (Multiply)         (None, 96, 64)       0           ['dense_374[0][0]',              
                                                                  'dense_375[0][0]']              
                                                                                                  
 dense_458 (Dense)              (None, 96, 64)       4160        ['dropout_121[0][0]']            
                                                                                                  
 multiply_117 (Multiply)        (None, 96, 64)       0           ['dense_456[0][0]',              
                                                                  'dense_457[0][0]']              
                                                                                                  
 add_12 (Add)                   (None, 96, 64)       0           ['dense_48[0][0]',               
                                                                  'multiply_12[0][0]']            
                                                                                                  
 encoder_1_selfMHA-2 (MultiHead  (None, 672, 64)     64296       ['layer_normalization_5[0][0]',  
 Attention)                                                       'layer_normalization_5[0][0]',  
                                                                  'layer_normalization_5[0][0]']  
                                                                                                  
 add_33 (Add)                   (None, 96, 64)       0           ['dense_130[0][0]',              
                                                                  'multiply_33[0][0]']            
                                                                                                  
 add_54 (Add)                   (None, 96, 64)       0           ['dense_212[0][0]',              
                                                                  'multiply_54[0][0]']            
                                                                                                  
 add_75 (Add)                   (None, 96, 64)       0           ['dense_294[0][0]',              
                                                                  'multiply_75[0][0]']            
                                                                                                  
 add_96 (Add)                   (None, 96, 64)       0           ['dense_376[0][0]',              
                                                                  'multiply_96[0][0]']            
                                                                                                  
 add_117 (Add)                  (None, 96, 64)       0           ['dense_458[0][0]',              
                                                                  'multiply_117[0][0]']           
                                                                                                  
 layer_normalization_12 (LayerN  (None, 96, 64)      128         ['add_12[0][0]']                 
 ormalization)                                                                                    
                                                                                                  
 dropout_7 (Dropout)            (None, 672, 64)      0           ['encoder_1_selfMHA-2[0][0]']    
                                                                                                  
 layer_normalization_33 (LayerN  (None, 96, 64)      128         ['add_33[0][0]']                 
 ormalization)                                                                                    
                                                                                                  
 layer_normalization_54 (LayerN  (None, 96, 64)      128         ['add_54[0][0]']                 
 ormalization)                                                                                    
                                                                                                  
 layer_normalization_75 (LayerN  (None, 96, 64)      128         ['add_75[0][0]']                 
 ormalization)                                                                                    
                                                                                                  
 layer_normalization_96 (LayerN  (None, 96, 64)      128         ['add_96[0][0]']                 
 ormalization)                                                                                    
                                                                                                  
 layer_normalization_117 (Layer  (None, 96, 64)      128         ['add_117[0][0]']                
 Normalization)                                                                                   
                                                                                                  
 time_distributed_20 (TimeDistr  (None, 96, 64)      4160        ['layer_normalization_12[0][0]'] 
 ibuted)                                                                                          
                                                                                                  
 dense_23 (Dense)               (None, 672, 64)      4160        ['dropout_7[0][0]']              
                                                                                                  
 dense_24 (Dense)               (None, 672, 64)      4160        ['dropout_7[0][0]']              
                                                                                                  
 time_distributed_61 (TimeDistr  (None, 96, 64)      4160        ['layer_normalization_33[0][0]'] 
 ibuted)                                                                                          
                                                                                                  
 time_distributed_102 (TimeDist  (None, 96, 64)      4160        ['layer_normalization_54[0][0]'] 
 ributed)                                                                                         
                                                                                                  
 time_distributed_143 (TimeDist  (None, 96, 64)      4160        ['layer_normalization_75[0][0]'] 
 ributed)                                                                                         
                                                                                                  
 time_distributed_184 (TimeDist  (None, 96, 64)      4160        ['layer_normalization_96[0][0]'] 
 ributed)                                                                                         
                                                                                                  
 time_distributed_225 (TimeDist  (None, 96, 64)      4160        ['layer_normalization_117[0][0]']
 ributed)                                                                                         
                                                                                                  
 activation_4 (Activation)      (None, 96, 64)       0           ['time_distributed_20[0][0]']    
                                                                                                  
 dense_25 (Dense)               (None, 672, 64)      4160        ['layer_normalization_5[0][0]']  
                                                                                                  
 multiply_6 (Multiply)          (None, 672, 64)      0           ['dense_23[0][0]',               
                                                                  'dense_24[0][0]']               
                                                                                                  
 activation_12 (Activation)     (None, 96, 64)       0           ['time_distributed_61[0][0]']    
                                                                                                  
 activation_20 (Activation)     (None, 96, 64)       0           ['time_distributed_102[0][0]']   
                                                                                                  
 activation_28 (Activation)     (None, 96, 64)       0           ['time_distributed_143[0][0]']   
                                                                                                  
 activation_36 (Activation)     (None, 96, 64)       0           ['time_distributed_184[0][0]']   
                                                                                                  
 activation_44 (Activation)     (None, 96, 64)       0           ['time_distributed_225[0][0]']   
                                                                                                  
 time_distributed_21 (TimeDistr  (None, 96, 64)      4160        ['activation_4[0][0]']           
 ibuted)                                                                                          
                                                                                                  
 add_6 (Add)                    (None, 672, 64)      0           ['dense_25[0][0]',               
                                                                  'multiply_6[0][0]']             
                                                                                                  
 time_distributed_62 (TimeDistr  (None, 96, 64)      4160        ['activation_12[0][0]']          
 ibuted)                                                                                          
                                                                                                  
 time_distributed_103 (TimeDist  (None, 96, 64)      4160        ['activation_20[0][0]']          
 ributed)                                                                                         
                                                                                                  
 time_distributed_144 (TimeDist  (None, 96, 64)      4160        ['activation_28[0][0]']          
 ributed)                                                                                         
                                                                                                  
 time_distributed_185 (TimeDist  (None, 96, 64)      4160        ['activation_36[0][0]']          
 ributed)                                                                                         
                                                                                                  
 time_distributed_226 (TimeDist  (None, 96, 64)      4160        ['activation_44[0][0]']          
 ributed)                                                                                         
                                                                                                  
 dropout_15 (Dropout)           (None, 96, 64)       0           ['time_distributed_21[0][0]']    
                                                                                                  
 layer_normalization_6 (LayerNo  (None, 672, 64)     128         ['add_6[0][0]']                  
 rmalization)                                                                                     
                                                                                                  
 dropout_37 (Dropout)           (None, 96, 64)       0           ['time_distributed_62[0][0]']    
                                                                                                  
 dropout_59 (Dropout)           (None, 96, 64)       0           ['time_distributed_103[0][0]']   
                                                                                                  
 dropout_81 (Dropout)           (None, 96, 64)       0           ['time_distributed_144[0][0]']   
                                                                                                  
 dropout_103 (Dropout)          (None, 96, 64)       0           ['time_distributed_185[0][0]']   
                                                                                                  
 dropout_125 (Dropout)          (None, 96, 64)       0           ['time_distributed_226[0][0]']   
                                                                                                  
 time_distributed_22 (TimeDistr  (None, 96, 64)      4160        ['dropout_15[0][0]']             
 ibuted)                                                                                          
                                                                                                  
 time_distributed_23 (TimeDistr  (None, 96, 64)      4160        ['dropout_15[0][0]']             
 ibuted)                                                                                          
                                                                                                  
 time_distributed_10 (TimeDistr  (None, 672, 64)     4160        ['layer_normalization_6[0][0]']  
 ibuted)                                                                                          
                                                                                                  
 time_distributed_63 (TimeDistr  (None, 96, 64)      4160        ['dropout_37[0][0]']             
 ibuted)                                                                                          
                                                                                                  
 time_distributed_64 (TimeDistr  (None, 96, 64)      4160        ['dropout_37[0][0]']             
 ibuted)                                                                                          
                                                                                                  
 time_distributed_104 (TimeDist  (None, 96, 64)      4160        ['dropout_59[0][0]']             
 ributed)                                                                                         
                                                                                                  
 time_distributed_105 (TimeDist  (None, 96, 64)      4160        ['dropout_59[0][0]']             
 ributed)                                                                                         
                                                                                                  
 time_distributed_145 (TimeDist  (None, 96, 64)      4160        ['dropout_81[0][0]']             
 ributed)                                                                                         
                                                                                                  
 time_distributed_146 (TimeDist  (None, 96, 64)      4160        ['dropout_81[0][0]']             
 ributed)                                                                                         
                                                                                                  
 time_distributed_186 (TimeDist  (None, 96, 64)      4160        ['dropout_103[0][0]']            
 ributed)                                                                                         
                                                                                                  
 time_distributed_187 (TimeDist  (None, 96, 64)      4160        ['dropout_103[0][0]']            
 ributed)                                                                                         
                                                                                                  
 time_distributed_227 (TimeDist  (None, 96, 64)      4160        ['dropout_125[0][0]']            
 ributed)                                                                                         
                                                                                                  
 time_distributed_228 (TimeDist  (None, 96, 64)      4160        ['dropout_125[0][0]']            
 ributed)                                                                                         
                                                                                                  
 time_distributed_24 (TimeDistr  (None, 96, 64)      4160        ['layer_normalization_12[0][0]'] 
 ibuted)                                                                                          
                                                                                                  
 multiply_13 (Multiply)         (None, 96, 64)       0           ['time_distributed_22[0][0]',    
                                                                  'time_distributed_23[0][0]']    
                                                                                                  
 activation_2 (Activation)      (None, 672, 64)      0           ['time_distributed_10[0][0]']    
                                                                                                  
 time_distributed_65 (TimeDistr  (None, 96, 64)      4160        ['layer_normalization_33[0][0]'] 
 ibuted)                                                                                          
                                                                                                  
 multiply_34 (Multiply)         (None, 96, 64)       0           ['time_distributed_63[0][0]',    
                                                                  'time_distributed_64[0][0]']    
                                                                                                  
 time_distributed_106 (TimeDist  (None, 96, 64)      4160        ['layer_normalization_54[0][0]'] 
 ributed)                                                                                         
                                                                                                  
 multiply_55 (Multiply)         (None, 96, 64)       0           ['time_distributed_104[0][0]',   
                                                                  'time_distributed_105[0][0]']   
                                                                                                  
 time_distributed_147 (TimeDist  (None, 96, 64)      4160        ['layer_normalization_75[0][0]'] 
 ributed)                                                                                         
                                                                                                  
 multiply_76 (Multiply)         (None, 96, 64)       0           ['time_distributed_145[0][0]',   
                                                                  'time_distributed_146[0][0]']   
                                                                                                  
 time_distributed_188 (TimeDist  (None, 96, 64)      4160        ['layer_normalization_96[0][0]'] 
 ributed)                                                                                         
                                                                                                  
 multiply_97 (Multiply)         (None, 96, 64)       0           ['time_distributed_186[0][0]',   
                                                                  'time_distributed_187[0][0]']   
                                                                                                  
 time_distributed_229 (TimeDist  (None, 96, 64)      4160        ['layer_normalization_117[0][0]']
 ributed)                                                                                         
                                                                                                  
 multiply_118 (Multiply)        (None, 96, 64)       0           ['time_distributed_227[0][0]',   
                                                                  'time_distributed_228[0][0]']   
                                                                                                  
 add_13 (Add)                   (None, 96, 64)       0           ['time_distributed_24[0][0]',    
                                                                  'multiply_13[0][0]']            
                                                                                                  
 time_distributed_11 (TimeDistr  (None, 672, 64)     4160        ['activation_2[0][0]']           
 ibuted)                                                                                          
                                                                                                  
 add_34 (Add)                   (None, 96, 64)       0           ['time_distributed_65[0][0]',    
                                                                  'multiply_34[0][0]']            
                                                                                                  
 add_55 (Add)                   (None, 96, 64)       0           ['time_distributed_106[0][0]',   
                                                                  'multiply_55[0][0]']            
                                                                                                  
 add_76 (Add)                   (None, 96, 64)       0           ['time_distributed_147[0][0]',   
                                                                  'multiply_76[0][0]']            
                                                                                                  
 add_97 (Add)                   (None, 96, 64)       0           ['time_distributed_188[0][0]',   
                                                                  'multiply_97[0][0]']            
                                                                                                  
 add_118 (Add)                  (None, 96, 64)       0           ['time_distributed_229[0][0]',   
                                                                  'multiply_118[0][0]']           
                                                                                                  
 layer_normalization_13 (LayerN  (None, 96, 64)      128         ['add_13[0][0]']                 
 ormalization)                                                                                    
                                                                                                  
 dropout_8 (Dropout)            (None, 672, 64)      0           ['time_distributed_11[0][0]']    
                                                                                                  
 layer_normalization_34 (LayerN  (None, 96, 64)      128         ['add_34[0][0]']                 
 ormalization)                                                                                    
                                                                                                  
 layer_normalization_55 (LayerN  (None, 96, 64)      128         ['add_55[0][0]']                 
 ormalization)                                                                                    
                                                                                                  
 layer_normalization_76 (LayerN  (None, 96, 64)      128         ['add_76[0][0]']                 
 ormalization)                                                                                    
                                                                                                  
 layer_normalization_97 (LayerN  (None, 96, 64)      128         ['add_97[0][0]']                 
 ormalization)                                                                                    
                                                                                                  
 layer_normalization_118 (Layer  (None, 96, 64)      128         ['add_118[0][0]']                
 Normalization)                                                                                   
                                                                                                  
 tf.compat.v1.shape (TFOpLambda  (3,)                0           ['layer_normalization_13[0][0]'] 
 )                                                                                                
                                                                                                  
 tf.compat.v1.shape_1 (TFOpLamb  (3,)                0           ['layer_normalization_13[0][0]'] 
 da)                                                                                              
                                                                                                  
 time_distributed_12 (TimeDistr  (None, 672, 64)     4160        ['dropout_8[0][0]']              
 ibuted)                                                                                          
                                                                                                  
 time_distributed_13 (TimeDistr  (None, 672, 64)     4160        ['dropout_8[0][0]']              
 ibuted)                                                                                          
                                                                                                  
 tf.compat.v1.shape_6 (TFOpLamb  (3,)                0           ['layer_normalization_34[0][0]'] 
 da)                                                                                              
…
 tf.__operators__.getitem_30 (S  ()                  0           ['tf.compat.v1.shape_30[0][0]']  
 licingOpLambda)                                                                                  
                                                                                                  
 tf.__operators__.getitem_31 (S  (1,)                0           ['tf.compat.v1.shape_31[0][0]']  
 licingOpLambda)                                                                                  
                                                                                                  
 tf.eye (TFOpLambda)            (None, 96, 96)       0           ['tf.__operators__.getitem[0][0]'
                                                                 , 'tf.__operators__.getitem_1[0][
                                                                 0]']                             
                                                                                                  
 add_7 (Add)                    (None, 672, 64)      0           ['time_distributed_14[0][0]',    
                                                                  'multiply_7[0][0]']             
                                                                                                  
 tf.eye_3 (TFOpLambda)          (None, 96, 96)       0           ['tf.__operators__.getitem_6[0][0
                                                                 ]',                              
                                                                  'tf.__operators__.getitem_7[0][0
                                                                 ]']                              
                                                                                                  
 tf.eye_6 (TFOpLambda)          (None, 96, 96)       0           ['tf.__operators__.getitem_12[0][
                                                                 0]',                             
                                                                  'tf.__operators__.getitem_13[0][
                                                                 0]']                             
                                                                                                  
 tf.eye_9 (TFOpLambda)          (None, 96, 96)       0           ['tf.__operators__.getitem_18[0][
                                                                 0]',                             
                                                                  'tf.__operators__.getitem_19[0][
                                                                 0]']                             
                                                                                                  
 tf.eye_12 (TFOpLambda)         (None, 96, 96)       0           ['tf.__operators__.getitem_24[0][
                                                                 0]',                             
                                                                  'tf.__operators__.getitem_25[0][
                                                                 0]']                             
                                                                                                  
 tf.eye_15 (TFOpLambda)         (None, 96, 96)       0           ['tf.__operators__.getitem_30[0][
                                                                 0]',                             
                                                                  'tf.__operators__.getitem_31[0][
                                                                 0]']                             
                                                                                                  
 tf.math.cumsum (TFOpLambda)    (None, 96, 96)       0           ['tf.eye[0][0]']                 
                                                                                                  
 layer_normalization_7 (LayerNo  (None, 672, 64)     128         ['add_7[0][0]']                  
 rmalization)                                                                                     
                                                                                                  
 tf.math.cumsum_3 (TFOpLambda)  (None, 96, 96)       0           ['tf.eye_3[0][0]']               
                                                                                                  
 tf.math.cumsum_6 (TFOpLambda)  (None, 96, 96)       0           ['tf.eye_6[0][0]']               
                                                                                                  
 tf.math.cumsum_9 (TFOpLambda)  (None, 96, 96)       0           ['tf.eye_9[0][0]']               
                                                                                                  
 tf.math.cumsum_12 (TFOpLambda)  (None, 96, 96)      0           ['tf.eye_12[0][0]']              
                                                                                                  
 tf.math.cumsum_15 (TFOpLambda)  (None, 96, 96)      0           ['tf.eye_15[0][0]']              
                                                                                                  
 decoder_1_casualMHA-1 (MultiHe  (None, 96, 64)      64296       ['layer_normalization_13[0][0]', 
 adAttention)                                                     'tf.math.cumsum[0][0]',         
                                                                  'layer_normalization_13[0][0]', 
                                                                  'layer_normalization_13[0][0]'] 
                                                                                                  
 encoder_1_selfMHA-3 (MultiHead  (None, 672, 64)     64296       ['layer_normalization_7[0][0]',  
 Attention)                                                       'layer_normalization_7[0][0]',  
                                                                  'layer_normalization_7[0][0]']  
                                                                                                  
 decoder_2_casualMHA-1 (MultiHe  (None, 96, 64)      64296       ['layer_normalization_34[0][0]', 
 adAttention)                                                     'tf.math.cumsum_3[0][0]',       
                                                                  'layer_normalization_34[0][0]', 
                                                                  'layer_normalization_34[0][0]'] 
                                                                                                  
 decoder_3_casualMHA-1 (MultiHe  (None, 96, 64)      64296       ['layer_normalization_55[0][0]', 
 adAttention)                                                     'tf.math.cumsum_6[0][0]',       
                                                                  'layer_normalization_55[0][0]', 
                                                                  'layer_normalization_55[0][0]'] 
                                                                                                  
 decoder_4_casualMHA-1 (MultiHe  (None, 96, 64)      64296       ['layer_normalization_76[0][0]', 
 adAttention)                                                     'tf.math.cumsum_9[0][0]',       
                                                                  'layer_normalization_76[0][0]', 
                                                                  'layer_normalization_76[0][0]'] 
                                                                                                  
 decoder_5_casualMHA-1 (MultiHe  (None, 96, 64)      64296       ['layer_normalization_97[0][0]', 
 adAttention)                                                     'tf.math.cumsum_12[0][0]',      
                                                                  'layer_normalization_97[0][0]', 
                                                                  'layer_normalization_97[0][0]'] 
                                                                                                  
 decoder_6_casualMHA-1 (MultiHe  (None, 96, 64)      64296       ['layer_normalization_118[0][0]',
 adAttention)                                                     'tf.math.cumsum_15[0][0]',      
                                                                  'layer_normalization_118[0][0]',
                                                                  'layer_normalization_118[0][0]']
                                                                                                  
 dropout_16 (Dropout)           (None, 96, 64)       0           ['decoder_1_casualMHA-1[0][0]']  
                                                                                                  
 dropout_9 (Dropout)            (None, 672, 64)      0           ['encoder_1_selfMHA-3[0][0]']    
                                                                                                  
 dropout_38 (Dropout)           (None, 96, 64)       0           ['decoder_2_casualMHA-1[0][0]']  
                                                                                                  
 dropout_60 (Dropout)           (None, 96, 64)       0           ['decoder_3_casualMHA-1[0][0]']  
                                                                                                  
 dropout_82 (Dropout)           (None, 96, 64)       0           ['decoder_4_casualMHA-1[0][0]']  
                                                                                                  
 dropout_104 (Dropout)          (None, 96, 64)       0           ['decoder_5_casualMHA-1[0][0]']  
                                                                                                  
 dropout_126 (Dropout)          (None, 96, 64)       0           ['decoder_6_casualMHA-1[0][0]']  
                                                                                                  
 dense_54 (Dense)               (None, 96, 64)       4160        ['dropout_16[0][0]']             
                                                                                                  
 dense_55 (Dense)               (None, 96, 64)       4160        ['dropout_16[0][0]']             
                                                                                                  
 dense_31 (Dense)               (None, 672, 64)      4160        ['dropout_9[0][0]']              
                                                                                                  
 dense_32 (Dense)               (None, 672, 64)      4160        ['dropout_9[0][0]']              
                                                                                                  
 dense_136 (Dense)              (None, 96, 64)       4160        ['dropout_38[0][0]']             
                                                                                                  
 dense_137 (Dense)              (None, 96, 64)       4160        ['dropout_38[0][0]']             
                                                                                                  
 dense_218 (Dense)              (None, 96, 64)       4160        ['dropout_60[0][0]']             
                                                                                                  
 dense_219 (Dense)              (None, 96, 64)       4160        ['dropout_60[0][0]']             
                                                                                                  
 dense_300 (Dense)              (None, 96, 64)       4160        ['dropout_82[0][0]']             
                                                                                                  
 dense_301 (Dense)              (None, 96, 64)       4160        ['dropout_82[0][0]']             
                                                                                                  
 dense_382 (Dense)              (None, 96, 64)       4160        ['dropout_104[0][0]']            
                                                                                                  
 dense_383 (Dense)              (None, 96, 64)       4160        ['dropout_104[0][0]']            
                                                                                                  
 dense_464 (Dense)              (None, 96, 64)       4160        ['dropout_126[0][0]']            
                                                                                                  
 dense_465 (Dense)              (None, 96, 64)       4160        ['dropout_126[0][0]']            
                                                                                                  
 dense_56 (Dense)               (None, 96, 64)       4160        ['layer_normalization_13[0][0]'] 
                                                                                                  
 multiply_14 (Multiply)         (None, 96, 64)       0           ['dense_54[0][0]',               
                                                                  'dense_55[0][0]']               
                                                                                                  
 dense_33 (Dense)               (None, 672, 64)      4160        ['layer_normalization_7[0][0]']  
                                                                                                  
 multiply_8 (Multiply)          (None, 672, 64)      0           ['dense_31[0][0]',               
                                                                  'dense_32[0][0]']               
                                                                                                  
 dense_138 (Dense)              (None, 96, 64)       4160        ['layer_normalization_34[0][0]'] 
                                                                                                  
 multiply_35 (Multiply)         (None, 96, 64)       0           ['dense_136[0][0]',              
                                                                  'dense_137[0][0]']              
                                                                                                  
 dense_220 (Dense)              (None, 96, 64)       4160        ['layer_normalization_55[0][0]'] 
                                                                                                  
 multiply_56 (Multiply)         (None, 96, 64)       0           ['dense_218[0][0]',              
                                                                  'dense_219[0][0]']              
                                                                                                  
 dense_302 (Dense)              (None, 96, 64)       4160        ['layer_normalization_76[0][0]'] 
                                                                                                  
 multiply_77 (Multiply)         (None, 96, 64)       0           ['dense_300[0][0]',              
                                                                  'dense_301[0][0]']              
                                                                                                  
 dense_384 (Dense)              (None, 96, 64)       4160        ['layer_normalization_97[0][0]'] 
                                                                                                  
 multiply_98 (Multiply)         (None, 96, 64)       0           ['dense_382[0][0]',              
                                                                  'dense_383[0][0]']              
                                                                                                  
 dense_466 (Dense)              (None, 96, 64)       4160        ['layer_normalization_118[0][0]']
                                                                                                  
 multiply_119 (Multiply)        (None, 96, 64)       0           ['dense_464[0][0]',              
                                                                  'dense_465[0][0]']              
                                                                                                  
 add_14 (Add)                   (None, 96, 64)       0           ['dense_56[0][0]',               
                                                                  'multiply_14[0][0]']            
                                                                                                  
 add_8 (Add)                    (None, 672, 64)      0           ['dense_33[0][0]',               
                                                                  'multiply_8[0][0]']             
                                                                                                  
 add_35 (Add)                   (None, 96, 64)       0           ['dense_138[0][0]',              
                                                                  'multiply_35[0][0]']            
                                                                                                  
 add_56 (Add)                   (None, 96, 64)       0           ['dense_220[0][0]',              
                                                                  'multiply_56[0][0]']            
                                                                                                  
 add_77 (Add)                   (None, 96, 64)       0           ['dense_302[0][0]',              
                                                                  'multiply_77[0][0]']            
                                                                                                  
 add_98 (Add)                   (None, 96, 64)       0           ['dense_384[0][0]',              
                                                                  'multiply_98[0][0]']            
                                                                                                  
 add_119 (Add)                  (None, 96, 64)       0           ['dense_466[0][0]',              
                                                                  'multiply_119[0][0]']           
                                                                                                  
 layer_normalization_14 (LayerN  (None, 96, 64)      128         ['add_14[0][0]']                 
 ormalization)                                                                                    
                                                                                                  
 layer_normalization_8 (LayerNo  (None, 672, 64)     128         ['add_8[0][0]']                  
 rmalization)                                                                                     
                                                                                                  
 layer_normalization_35 (LayerN  (None, 96, 64)      128         ['add_35[0][0]']                 
 ormalization)                                                                                    
                                                                                                  
 layer_normalization_56 (LayerN  (None, 96, 64)      128         ['add_56[0][0]']                 
 ormalization)                                                                                    
                                                                                                  
 layer_normalization_77 (LayerN  (None, 96, 64)      128         ['add_77[0][0]']                 
 ormalization)                                                                                    
                                                                                                  
 layer_normalization_98 (LayerN  (None, 96, 64)      128         ['add_98[0][0]']                 
 ormalization)                                                                                    
                                                                                                  
 layer_normalization_119 (Layer  (None, 96, 64)      128         ['add_119[0][0]']                
 Normalization)                                                                                   
                                                                                                  
 time_distributed_25 (TimeDistr  (None, 96, 64)      4160        ['layer_normalization_14[0][0]'] 
 ibuted)                                                                                          
                                                                                                  
 time_distributed_15 (TimeDistr  (None, 672, 64)     4160        ['layer_normalization_8[0][0]']  
 ibuted)                                                                                          
                                                                                                  
 time_distributed_66 (TimeDistr  (None, 96, 64)      4160        ['layer_normalization_35[0][0]'] 
 ibuted)                                                                                          
                                                                                                  
 time_distributed_107 (TimeDist  (None, 96, 64)      4160        ['layer_normalization_56[0][0]'] 
 ributed)                                                                                         
                                                                                                  
 time_distributed_148 (TimeDist  (None, 96, 64)      4160        ['layer_normalization_77[0][0]'] 
 ributed)                                                                                         
                                                                                                  
 time_distributed_189 (TimeDist  (None, 96, 64)      4160        ['layer_normalization_98[0][0]'] 
 ributed)                                                                                         
                                                                                                  
 time_distributed_230 (TimeDist  (None, 96, 64)      4160        ['layer_normalization_119[0][0]']
 ributed)                                                                                         
                                                                                                  
 activation_5 (Activation)      (None, 96, 64)       0           ['time_distributed_25[0][0]']    
                                                                                                  
 activation_3 (Activation)      (None, 672, 64)      0           ['time_distributed_15[0][0]']    
                                                                                                  
 activation_13 (Activation)     (None, 96, 64)       0           ['time_distributed_66[0][0]']    
                                                                                                  
 activation_21 (Activation)     (None, 96, 64)       0           ['time_distributed_107[0][0]']   
                                                                                                  
 activation_29 (Activation)     (None, 96, 64)       0           ['time_distributed_148[0][0]']   
                                                                                                  
 activation_37 (Activation)     (None, 96, 64)       0           ['time_distributed_189[0][0]']   
                                                                                                  
 activation_45 (Activation)     (None, 96, 64)       0           ['time_distributed_230[0][0]']   
                                                                                                  
 time_distributed_26 (TimeDistr  (None, 96, 64)      4160        ['activation_5[0][0]']           
 ibuted)                                                                                          
                                                                                                  
 time_distributed_16 (TimeDistr  (None, 672, 64)     4160        ['activation_3[0][0]']           
 ibuted)                                                                                          
                                                                                                  
 time_distributed_67 (TimeDistr  (None, 96, 64)      4160        ['activation_13[0][0]']          
 ibuted)                                                                                          
                                                                                                  
 time_distributed_108 (TimeDist  (None, 96, 64)      4160        ['activation_21[0][0]']          
 ributed)                                                                                         
                                                                                                  
 time_distributed_149 (TimeDist  (None, 96, 64)      4160        ['activation_29[0][0]']          
 ributed)                                                                                         
                                                                                                  
 time_distributed_190 (TimeDist  (None, 96, 64)      4160        ['activation_37[0][0]']          
 ributed)                                                                                         
                                                                                                  
 time_distributed_231 (TimeDist  (None, 96, 64)      4160        ['activation_45[0][0]']          
 ributed)                                                                                         
                                                                                                  
 dropout_17 (Dropout)           (None, 96, 64)       0           ['time_distributed_26[0][0]']    
                                                                                                  
 dropout_10 (Dropout)           (None, 672, 64)      0           ['time_distributed_16[0][0]']    
                                                                                                  
 dropout_39 (Dropout)           (None, 96, 64)       0           ['time_distributed_67[0][0]']    
                                                                                                  
 dropout_61 (Dropout)           (None, 96, 64)       0           ['time_distributed_108[0][0]']   
                                                                                                  
 dropout_83 (Dropout)           (None, 96, 64)       0           ['time_distributed_149[0][0]']   
                                                                                                  
 dropout_105 (Dropout)          (None, 96, 64)       0           ['time_distributed_190[0][0]']   
                                                                                                  
 dropout_127 (Dropout)          (None, 96, 64)       0           ['time_distributed_231[0][0]']   
                                                                                                  
 time_distributed_27 (TimeDistr  (None, 96, 64)      4160        ['dropout_17[0][0]']             
 ibuted)                                                                                          
                                                                                                  
 time_distributed_28 (TimeDistr  (None, 96, 64)      4160        ['dropout_17[0][0]']             
 ibuted)                                                                                          
                                                                                                  
 time_distributed_17 (TimeDistr  (None, 672, 64)     4160        ['dropout_10[0][0]']             
 ibuted)                                                                                          
                                                                                                  
 time_distributed_18 (TimeDistr  (None, 672, 64)     4160        ['dropout_10[0][0]']             
 ibuted)                                                                                          
                                                                                                  
 time_distributed_68 (TimeDistr  (None, 96, 64)      4160        ['dropout_39[0][0]']             
 ibuted)                                                                                          
                                                                                                  
 time_distributed_69 (TimeDistr  (None, 96, 64)      4160        ['dropout_39[0][0]']             
 ibuted)                                                                                          
                                                                                                  
 time_distributed_109 (TimeDist  (None, 96, 64)      4160        ['dropout_61[0][0]']             
 ributed)                                                                                         
                                                                                                  
 time_distributed_110 (TimeDist  (None, 96, 64)      4160        ['dropout_61[0][0]']             
 ributed)                                                                                         
                                                                                                  
 time_distributed_150 (TimeDist  (None, 96, 64)      4160        ['dropout_83[0][0]']             
 ributed)                                                                                         
                                                                                                  
 time_distributed_151 (TimeDist  (None, 96, 64)      4160        ['dropout_83[0][0]']             
 ributed)                                                                                         
                                                                                                  
 time_distributed_191 (TimeDist  (None, 96, 64)      4160        ['dropout_105[0][0]']            
 ributed)                                                                                         
                                                                                                  
 time_distributed_192 (TimeDist  (None, 96, 64)      4160        ['dropout_105[0][0]']            
 ributed)                                                                                         
                                                                                                  
 time_distributed_232 (TimeDist  (None, 96, 64)      4160        ['dropout_127[0][0]']            
 ributed)                                                                                         
                                                                                                  
 time_distributed_233 (TimeDist  (None, 96, 64)      4160        ['dropout_127[0][0]']            
 ributed)                                                                                         
                                                                                                  
 time_distributed_29 (TimeDistr  (None, 96, 64)      4160        ['layer_normalization_14[0][0]'] 
 ibuted)                                                                                          
                                                                                                  
 multiply_15 (Multiply)         (None, 96, 64)       0           ['time_distributed_27[0][0]',    
                                                                  'time_distributed_28[0][0]']    
                                                                                                  
 time_distributed_19 (TimeDistr  (None, 672, 64)     4160        ['layer_normalization_8[0][0]']  
 ibuted)                                                                                          
                                                                                                  
 multiply_9 (Multiply)          (None, 672, 64)      0           ['time_distributed_17[0][0]',    
                                                                  'time_distributed_18[0][0]']    
                                                                                                  
 time_distributed_70 (TimeDistr  (None, 96, 64)      4160        ['layer_normalization_35[0][0]'] 
 ibuted)                                                                                          
                                                                                                  
 multiply_36 (Multiply)         (None, 96, 64)       0           ['time_distributed_68[0][0]',    
                                                                  'time_distributed_69[0][0]']    
                                                                                                  
 time_distributed_111 (TimeDist  (None, 96, 64)      4160        ['layer_normalization_56[0][0]'] 
 ributed)                                                                                         
                                                                                                  
 multiply_57 (Multiply)         (None, 96, 64)       0           ['time_distributed_109[0][0]',   
                                                                  'time_distributed_110[0][0]']   
                                                                                                  
 time_distributed_152 (TimeDist  (None, 96, 64)      4160        ['layer_normalization_77[0][0]'] 
 ributed)                                                                                         
                                                                                                  
 multiply_78 (Multiply)         (None, 96, 64)       0           ['time_distributed_150[0][0]',   
                                                                  'time_distributed_151[0][0]']   
                                                                                                  
 time_distributed_193 (TimeDist  (None, 96, 64)      4160        ['layer_normalization_98[0][0]'] 
 ributed)                                                                                         
                                                                                                  
 multiply_99 (Multiply)         (None, 96, 64)       0           ['time_distributed_191[0][0]',   
                                                                  'time_distributed_192[0][0]']   
                                                                                                  
 time_distributed_234 (TimeDist  (None, 96, 64)      4160        ['layer_normalization_119[0][0]']
 ributed)                                                                                         
                                                                                                  
 multiply_120 (Multiply)        (None, 96, 64)       0           ['time_distributed_232[0][0]',   
                                                                  'time_distributed_233[0][0]']   
                                                                                                  
 add_15 (Add)                   (None, 96, 64)       0           ['time_distributed_29[0][0]',    
                                                                  'multiply_15[0][0]']            
                                                                                                  
 add_9 (Add)                    (None, 672, 64)      0           ['time_distributed_19[0][0]',    
                                                                  'multiply_9[0][0]']             
                                                                                                  
 add_36 (Add)                   (None, 96, 64)       0           ['time_distributed_70[0][0]',    
                                                                  'multiply_36[0][0]']            
                                                                                                  
 add_57 (Add)                   (None, 96, 64)       0           ['time_distributed_111[0][0]',   
                                                                  'multiply_57[0][0]']            
                                                                                                  
 add_78 (Add)                   (None, 96, 64)       0           ['time_distributed_152[0][0]',   
                                                                  'multiply_78[0][0]']            
                                                                                                  
 add_99 (Add)                   (None, 96, 64)       0           ['time_distributed_193[0][0]',   
                                                                  'multiply_99[0][0]']            
                                                                                                  
 add_120 (Add)                  (None, 96, 64)       0           ['time_distributed_234[0][0]',   
                                                                  'multiply_120[0][0]']           
                                                                                                  
 layer_normalization_15 (LayerN  (None, 96, 64)      128         ['add_15[0][0]']                 
 ormalization)                                                                                    
                                                                                                  
 layer_normalization_9 (LayerNo  (None, 672, 64)     128         ['add_9[0][0]']                  
 rmalization)                                                                                     
                                                                                                  
 layer_normalization_36 (LayerN  (None, 96, 64)      128         ['add_36[0][0]']                 
 ormalization)                                                                                    
                                                                                                  
 layer_normalization_57 (LayerN  (None, 96, 64)      128         ['add_57[0][0]']                 
 ormalization)                                                                                    
                                                                                                  
 layer_normalization_78 (LayerN  (None, 96, 64)      128         ['add_78[0][0]']                 
 ormalization)                                                                                    
                                                                                                  
 layer_normalization_99 (LayerN  (None, 96, 64)      128         ['add_99[0][0]']                 
 ormalization)                                                                                    
                                                                                                  
 layer_normalization_120 (Layer  (None, 96, 64)      128         ['add_120[0][0]']                
 Normalization)                                                                                   
                                                                                                  
 decoder_1_crossMHA-1 (MultiHea  (None, 96, 64)      64296       ['layer_normalization_15[0][0]', 
 dAttention)                                                      'layer_normalization_9[0][0]',  
                                                                  'layer_normalization_9[0][0]']  
                                                                                                  
 decoder_2_crossMHA-1 (MultiHea  (None, 96, 64)      64296       ['layer_normalization_36[0][0]', 
 dAttention)                                                      'layer_normalization_9[0][0]',  
                                                                  'layer_normalization_9[0][0]']  
                                                                                                  
 decoder_3_crossMHA-1 (MultiHea  (None, 96, 64)      64296       ['layer_normalization_57[0][0]', 
 dAttention)                                                      'layer_normalization_9[0][0]',  
                                                                  'layer_normalization_9[0][0]']  
                                                                                                  
 decoder_4_crossMHA-1 (MultiHea  (None, 96, 64)      64296       ['layer_normalization_78[0][0]', 
 dAttention)                                                      'layer_normalization_9[0][0]',  
                                                                  'layer_normalization_9[0][0]']  
                                                                                                  
 decoder_5_crossMHA-1 (MultiHea  (None, 96, 64)      64296       ['layer_normalization_99[0][0]', 
 dAttention)                                                      'layer_normalization_9[0][0]',  
                                                                  'layer_normalization_9[0][0]']  
                                                                                                  
 decoder_6_crossMHA-1 (MultiHea  (None, 96, 64)      64296       ['layer_normalization_120[0][0]',
 dAttention)                                                      'layer_normalization_9[0][0]',  
                                                                  'layer_normalization_9[0][0]']  
                                                                                                  
 dropout_18 (Dropout)           (None, 96, 64)       0           ['decoder_1_crossMHA-1[0][0]']   
                                                                                                  
 dropout_40 (Dropout)           (None, 96, 64)       0           ['decoder_2_crossMHA-1[0][0]']   
                                                                                                  
 dropout_62 (Dropout)           (None, 96, 64)       0           ['decoder_3_crossMHA-1[0][0]']   
                                                                                                  
 dropout_84 (Dropout)           (None, 96, 64)       0           ['decoder_4_crossMHA-1[0][0]']   
                                                                                                  
 dropout_106 (Dropout)          (None, 96, 64)       0           ['decoder_5_crossMHA-1[0][0]']   
                                                                                                  
 dropout_128 (Dropout)          (None, 96, 64)       0           ['decoder_6_crossMHA-1[0][0]']   
                                                                                                  
 dense_62 (Dense)               (None, 96, 64)       4160        ['dropout_18[0][0]']             
                                                                                                  
 dense_63 (Dense)               (None, 96, 64)       4160        ['dropout_18[0][0]']             
                                                                                                  
 dense_144 (Dense)              (None, 96, 64)       4160        ['dropout_40[0][0]']             
                                                                                                  
 dense_145 (Dense)              (None, 96, 64)       4160        ['dropout_40[0][0]']             
                                                                                                  
 dense_226 (Dense)              (None, 96, 64)       4160        ['dropout_62[0][0]']             
                                                                                                  
 dense_227 (Dense)              (None, 96, 64)       4160        ['dropout_62[0][0]']             
                                                                                                  
 dense_308 (Dense)              (None, 96, 64)       4160        ['dropout_84[0][0]']             
                                                                                                  
 dense_309 (Dense)              (None, 96, 64)       4160        ['dropout_84[0][0]']             
                                                                                                  
 dense_390 (Dense)              (None, 96, 64)       4160        ['dropout_106[0][0]']            
                                                                                                  
 dense_391 (Dense)              (None, 96, 64)       4160        ['dropout_106[0][0]']            
                                                                                                  
 dense_472 (Dense)              (None, 96, 64)       4160        ['dropout_128[0][0]']            
                                                                                                  
 dense_473 (Dense)              (None, 96, 64)       4160        ['dropout_128[0][0]']            
                                                                                                  
 dense_64 (Dense)               (None, 96, 64)       4160        ['layer_normalization_15[0][0]'] 
                                                                                                  
 multiply_16 (Multiply)         (None, 96, 64)       0           ['dense_62[0][0]',               
                                                                  'dense_63[0][0]']               
                                                                                                  
 dense_146 (Dense)              (None, 96, 64)       4160        ['layer_normalization_36[0][0]'] 
                                                                                                  
 multiply_37 (Multiply)         (None, 96, 64)       0           ['dense_144[0][0]',              
                                                                  'dense_145[0][0]']              
                                                                                                  
 dense_228 (Dense)              (None, 96, 64)       4160        ['layer_normalization_57[0][0]'] 
                                                                                                  
 multiply_58 (Multiply)         (None, 96, 64)       0           ['dense_226[0][0]',              
                                                                  'dense_227[0][0]']              
                                                                                                  
 dense_310 (Dense)              (None, 96, 64)       4160        ['layer_normalization_78[0][0]'] 
                                                                                                  
 multiply_79 (Multiply)         (None, 96, 64)       0           ['dense_308[0][0]',              
                                                                  'dense_309[0][0]']              
                                                                                                  
 dense_392 (Dense)              (None, 96, 64)       4160        ['layer_normalization_99[0][0]'] 
                                                                                                  
 multiply_100 (Multiply)        (None, 96, 64)       0           ['dense_390[0][0]',              
                                                                  'dense_391[0][0]']              
                                                                                                  
 dense_474 (Dense)              (None, 96, 64)       4160        ['layer_normalization_120[0][0]']
                                                                                                  
 multiply_121 (Multiply)        (None, 96, 64)       0           ['dense_472[0][0]',              
                                                                  'dense_473[0][0]']              
                                                                                                  
 add_16 (Add)                   (None, 96, 64)       0           ['dense_64[0][0]',               
                                                                  'multiply_16[0][0]']            
                                                                                                  
 add_37 (Add)                   (None, 96, 64)       0           ['dense_146[0][0]',              
                                                                  'multiply_37[0][0]']            
                                                                                                  
 add_58 (Add)                   (None, 96, 64)       0           ['dense_228[0][0]',              
                                                                  'multiply_58[0][0]']            
                                                                                                  
 add_79 (Add)                   (None, 96, 64)       0           ['dense_310[0][0]',              
                                                                  'multiply_79[0][0]']            
                                                                                                  
 add_100 (Add)                  (None, 96, 64)       0           ['dense_392[0][0]',              
                                                                  'multiply_100[0][0]']           
                                                                                                  
 add_121 (Add)                  (None, 96, 64)       0           ['dense_474[0][0]',              
                                                                  'multiply_121[0][0]']           
                                                                                                  
 layer_normalization_16 (LayerN  (None, 96, 64)      128         ['add_16[0][0]']                 
 ormalization)                                                                                    
                                                                                                  
 layer_normalization_37 (LayerN  (None, 96, 64)      128         ['add_37[0][0]']                 
 ormalization)                                                                                    
                                                                                                  
 layer_normalization_58 (LayerN  (None, 96, 64)      128         ['add_58[0][0]']                 
 ormalization)                                                                                    
                                                                                                  
 layer_normalization_79 (LayerN  (None, 96, 64)      128         ['add_79[0][0]']                 
 ormalization)                                                                                    
                                                                                                  
 layer_normalization_100 (Layer  (None, 96, 64)      128         ['add_100[0][0]']                
 Normalization)                                                                                   
                                                                                                  
 layer_normalization_121 (Layer  (None, 96, 64)      128         ['add_121[0][0]']                
 Normalization)                                                                                   
                                                                                                  
 time_distributed_30 (TimeDistr  (None, 96, 64)      4160        ['layer_normalization_16[0][0]'] 
 ibuted)                                                                                          
                                                                                                  
 time_distributed_71 (TimeDistr  (None, 96, 64)      4160        ['layer_normalization_37[0][0]'] 
 ibuted)                                                                                          
                                                                                                  
 time_distributed_112 (TimeDist  (None, 96, 64)      4160        ['layer_normalization_58[0][0]'] 
 ributed)                                                                                         
                                                                                                  
 time_distributed_153 (TimeDist  (None, 96, 64)      4160        ['layer_normalization_79[0][0]'] 
 ributed)                                                                                         
                                                                                                  
 time_distributed_194 (TimeDist  (None, 96, 64)      4160        ['layer_normalization_100[0][0]']
 ributed)                                                                                         
                                                                                                  
 time_distributed_235 (TimeDist  (None, 96, 64)      4160        ['layer_normalization_121[0][0]']
 ributed)                                                                                         
                                                                                                  
 activation_6 (Activation)      (None, 96, 64)       0           ['time_distributed_30[0][0]']    
                                                                                                  
 activation_14 (Activation)     (None, 96, 64)       0           ['time_distributed_71[0][0]']    
                                                                                                  
 activation_22 (Activation)     (None, 96, 64)       0           ['time_distributed_112[0][0]']   
                                                                                                  
 activation_30 (Activation)     (None, 96, 64)       0           ['time_distributed_153[0][0]']   
                                                                                                  
 activation_38 (Activation)     (None, 96, 64)       0           ['time_distributed_194[0][0]']   
                                                                                                  
 activation_46 (Activation)     (None, 96, 64)       0           ['time_distributed_235[0][0]']   
                                                                                                  
 time_distributed_31 (TimeDistr  (None, 96, 64)      4160        ['activation_6[0][0]']           
 ibuted)                                                                                          
                                                                                                  
 time_distributed_72 (TimeDistr  (None, 96, 64)      4160        ['activation_14[0][0]']          
 ibuted)                                                                                          
                                                                                                  
 time_distributed_113 (TimeDist  (None, 96, 64)      4160        ['activation_22[0][0]']          
 ributed)                                                                                         
                                                                                                  
 time_distributed_154 (TimeDist  (None, 96, 64)      4160        ['activation_30[0][0]']          
 ributed)                                                                                         
                                                                                                  
 time_distributed_195 (TimeDist  (None, 96, 64)      4160        ['activation_38[0][0]']          
 ributed)                                                                                         
                                                                                                  
 time_distributed_236 (TimeDist  (None, 96, 64)      4160        ['activation_46[0][0]']          
 ributed)                                                                                         
                                                                                                  
 dropout_19 (Dropout)           (None, 96, 64)       0           ['time_distributed_31[0][0]']    
                                                                                                  
 dropout_41 (Dropout)           (None, 96, 64)       0           ['time_distributed_72[0][0]']    
                                                                                                  
 dropout_63 (Dropout)           (None, 96, 64)       0           ['time_distributed_113[0][0]']   
                                                                                                  
 dropout_85 (Dropout)           (None, 96, 64)       0           ['time_distributed_154[0][0]']   
                                                                                                  
 dropout_107 (Dropout)          (None, 96, 64)       0           ['time_distributed_195[0][0]']   
                                                                                                  
 dropout_129 (Dropout)          (None, 96, 64)       0           ['time_distributed_236[0][0]']   
                                                                                                  
 time_distributed_32 (TimeDistr  (None, 96, 64)      4160        ['dropout_19[0][0]']             
 ibuted)                                                                                          
                                                                                                  
 time_distributed_33 (TimeDistr  (None, 96, 64)      4160        ['dropout_19[0][0]']             
 ibuted)                                                                                          
                                                                                                  
 time_distributed_73 (TimeDistr  (None, 96, 64)      4160        ['dropout_41[0][0]']             
 ibuted)                                                                                          
                                                                                                  
 time_distributed_74 (TimeDistr  (None, 96, 64)      4160        ['dropout_41[0][0]']             
 ibuted)                                                                                          
                                                                                                  
 time_distributed_114 (TimeDist  (None, 96, 64)      4160        ['dropout_63[0][0]']             
 ributed)                                                                                         
                                                                                                  
 time_distributed_115 (TimeDist  (None, 96, 64)      4160        ['dropout_63[0][0]']             
 ributed)                                                                                         
                                                                                                  
 time_distributed_155 (TimeDist  (None, 96, 64)      4160        ['dropout_85[0][0]']             
 ributed)                                                                                         
                                                                                                  
 time_distributed_156 (TimeDist  (None, 96, 64)      4160        ['dropout_85[0][0]']             
 ributed)                                                                                         
                                                                                                  
 time_distributed_196 (TimeDist  (None, 96, 64)      4160        ['dropout_107[0][0]']            
 ributed)                                                                                         
                                                                                                  
 time_distributed_197 (TimeDist  (None, 96, 64)      4160        ['dropout_107[0][0]']            
 ributed)                                                                                         
                                                                                                  
 time_distributed_237 (TimeDist  (None, 96, 64)      4160        ['dropout_129[0][0]']            
 ributed)                                                                                         
                                                                                                  
 time_distributed_238 (TimeDist  (None, 96, 64)      4160        ['dropout_129[0][0]']            
 ributed)                                                                                         
                                                                                                  
 time_distributed_34 (TimeDistr  (None, 96, 64)      4160        ['layer_normalization_16[0][0]'] 
 ibuted)                                                                                          
                                                                                                  
 multiply_17 (Multiply)         (None, 96, 64)       0           ['time_distributed_32[0][0]',    
                                                                  'time_distributed_33[0][0]']    
                                                                                                  
 time_distributed_75 (TimeDistr  (None, 96, 64)      4160        ['layer_normalization_37[0][0]'] 
 ibuted)                                                                                          
                                                                                                  
 multiply_38 (Multiply)         (None, 96, 64)       0           ['time_distributed_73[0][0]',    
                                                                  'time_distributed_74[0][0]']    
                                                                                                  
 time_distributed_116 (TimeDist  (None, 96, 64)      4160        ['layer_normalization_58[0][0]'] 
 ributed)                                                                                         
                                                                                                  
 multiply_59 (Multiply)         (None, 96, 64)       0           ['time_distributed_114[0][0]',   
                                                                  'time_distributed_115[0][0]']   
                                                                                                  
 time_distributed_157 (TimeDist  (None, 96, 64)      4160        ['layer_normalization_79[0][0]'] 
 ributed)                                                                                         
                                                                                                  
 multiply_80 (Multiply)         (None, 96, 64)       0           ['time_distributed_155[0][0]',   
                                                                  'time_distributed_156[0][0]']   
                                                                                                  
 time_distributed_198 (TimeDist  (None, 96, 64)      4160        ['layer_normalization_100[0][0]']
 ributed)                                                                                         
                                                                                                  
 multiply_101 (Multiply)        (None, 96, 64)       0           ['time_distributed_196[0][0]',   
                                                                  'time_distributed_197[0][0]']   
                                                                                                  
 time_distributed_239 (TimeDist  (None, 96, 64)      4160        ['layer_normalization_121[0][0]']
 ributed)                                                                                         
                                                                                                  
 multiply_122 (Multiply)        (None, 96, 64)       0           ['time_distributed_237[0][0]',   
                                                                  'time_distributed_238[0][0]']   
                                                                                                  
 add_17 (Add)                   (None, 96, 64)       0           ['time_distributed_34[0][0]',    
                                                                  'multiply_17[0][0]']            
                                                                                                  
 add_38 (Add)                   (None, 96, 64)       0           ['time_distributed_75[0][0]',    
                                                                  'multiply_38[0][0]']            
                                                                                                  
 add_59 (Add)                   (None, 96, 64)       0           ['time_distributed_116[0][0]',   
                                                                  'multiply_59[0][0]']            
                                                                                                  
 add_80 (Add)                   (None, 96, 64)       0           ['time_distributed_157[0][0]',   
                                                                  'multiply_80[0][0]']            
                                                                                                  
 add_101 (Add)                  (None, 96, 64)       0           ['time_distributed_198[0][0]',   
                                                                  'multiply_101[0][0]']           
                                                                                                  
 add_122 (Add)                  (None, 96, 64)       0           ['time_distributed_239[0][0]',   
                                                                  'multiply_122[0][0]']           
                                                                                                  
 layer_normalization_17 (LayerN  (None, 96, 64)      128         ['add_17[0][0]']                 
 ormalization)                                                                                    
                                                                                                  
 layer_normalization_38 (LayerN  (None, 96, 64)      128         ['add_38[0][0]']                 
 ormalization)                                                                                    
                                                                                                  
 layer_normalization_59 (LayerN  (None, 96, 64)      128         ['add_59[0][0]']                 
 ormalization)                                                                                    
                                                                                                  
 layer_normalization_80 (LayerN  (None, 96, 64)      128         ['add_80[0][0]']                 
 ormalization)                                                                                    
                                                                                                  
 layer_normalization_101 (Layer  (None, 96, 64)      128         ['add_101[0][0]']                
 Normalization)                                                                                   
                                                                                                  
 layer_normalization_122 (Layer  (None, 96, 64)      128         ['add_122[0][0]']                
 Normalization)                                                                                   
                                                                                                  
 tf.compat.v1.shape_2 (TFOpLamb  (3,)                0           ['layer_normalization_17[0][0]'] 
 da)                                                                                              
…
 tf.__operators__.getitem_32 (S  ()                  0           ['tf.compat.v1.shape_32[0][0]']  
 licingOpLambda)                                                                                  
                                                                                                  
 tf.__operators__.getitem_33 (S  (1,)                0           ['tf.compat.v1.shape_33[0][0]']  
 licingOpLambda)                                                                                  
                                                                                                  
 tf.eye_1 (TFOpLambda)          (None, 96, 96)       0           ['tf.__operators__.getitem_2[0][0
                                                                 ]',                              
                                                                  'tf.__operators__.getitem_3[0][0
                                                                 ]']                              
                                                                                                  
 tf.eye_4 (TFOpLambda)          (None, 96, 96)       0           ['tf.__operators__.getitem_8[0][0
                                                                 ]',                              
                                                                  'tf.__operators__.getitem_9[0][0
                                                                 ]']                              
                                                                                                  
 tf.eye_7 (TFOpLambda)          (None, 96, 96)       0           ['tf.__operators__.getitem_14[0][
                                                                 0]',                             
                                                                  'tf.__operators__.getitem_15[0][
                                                                 0]']                             
                                                                                                  
 tf.eye_10 (TFOpLambda)         (None, 96, 96)       0           ['tf.__operators__.getitem_20[0][
                                                                 0]',                             
                                                                  'tf.__operators__.getitem_21[0][
                                                                 0]']                             
                                                                                                  
 tf.eye_13 (TFOpLambda)         (None, 96, 96)       0           ['tf.__operators__.getitem_26[0][
                                                                 0]',                             
                                                                  'tf.__operators__.getitem_27[0][
                                                                 0]']                             
                                                                                                  
 tf.eye_16 (TFOpLambda)         (None, 96, 96)       0           ['tf.__operators__.getitem_32[0][
                                                                 0]',                             
                                                                  'tf.__operators__.getitem_33[0][
                                                                 0]']                             
                                                                                                  
 tf.math.cumsum_1 (TFOpLambda)  (None, 96, 96)       0           ['tf.eye_1[0][0]']               
                                                                                                  
 tf.math.cumsum_4 (TFOpLambda)  (None, 96, 96)       0           ['tf.eye_4[0][0]']               
                                                                                                  
 tf.math.cumsum_7 (TFOpLambda)  (None, 96, 96)       0           ['tf.eye_7[0][0]']               
                                                                                                  
 tf.math.cumsum_10 (TFOpLambda)  (None, 96, 96)      0           ['tf.eye_10[0][0]']              
                                                                                                  
 tf.math.cumsum_13 (TFOpLambda)  (None, 96, 96)      0           ['tf.eye_13[0][0]']              
                                                                                                  
 tf.math.cumsum_16 (TFOpLambda)  (None, 96, 96)      0           ['tf.eye_16[0][0]']              
                                                                                                  
 decoder_1_casualMHA-2 (MultiHe  (None, 96, 64)      64296       ['layer_normalization_17[0][0]', 
 adAttention)                                                     'tf.math.cumsum_1[0][0]',       
                                                                  'layer_normalization_17[0][0]', 
                                                                  'layer_normalization_17[0][0]'] 
                                                                                                  
 decoder_2_casualMHA-2 (MultiHe  (None, 96, 64)      64296       ['layer_normalization_38[0][0]', 
 adAttention)                                                     'tf.math.cumsum_4[0][0]',       
                                                                  'layer_normalization_38[0][0]', 
…
 dense_106 (Dense)              (None, 96, 64)       2112        ['dropout_29[0][0]']             
                                                                                                  
 dense_107 (Dense)              (None, 96, 64)       2112        ['dropout_29[0][0]']             
                                                                                                  
 dense_188 (Dense)              (None, 96, 64)       2112        ['dropout_51[0][0]']             
                                                                                                  
 dense_189 (Dense)              (None, 96, 64)       2112        ['dropout_51[0][0]']             
                                                                                                  
 dense_270 (Dense)              (None, 96, 64)       2112        ['dropout_73[0][0]']             
                                                                                                  
 dense_271 (Dense)              (None, 96, 64)       2112        ['dropout_73[0][0]']             
                                                                                                  
 dense_352 (Dense)              (None, 96, 64)       2112        ['dropout_95[0][0]']             
                                                                                                  
 dense_353 (Dense)              (None, 96, 64)       2112        ['dropout_95[0][0]']             
                                                                                                  
 dense_434 (Dense)              (None, 96, 64)       2112        ['dropout_117[0][0]']            
                                                                                                  
 dense_435 (Dense)              (None, 96, 64)       2112        ['dropout_117[0][0]']            
                                                                                                  
 dense_516 (Dense)              (None, 96, 64)       2112        ['dropout_139[0][0]']            
                                                                                                  
 dense_517 (Dense)              (None, 96, 64)       2112        ['dropout_139[0][0]']            
                                                                                                  
 dense_108 (Dense)              (None, 96, 64)       4160        ['layer_normalization_25[0][0]'] 
                                                                                                  
 multiply_27 (Multiply)         (None, 96, 64)       0           ['dense_106[0][0]',              
                                                                  'dense_107[0][0]']              
                                                                                                  
 dense_190 (Dense)              (None, 96, 64)       4160        ['layer_normalization_46[0][0]'] 
                                                                                                  
 multiply_48 (Multiply)         (None, 96, 64)       0           ['dense_188[0][0]',              
                                                                  'dense_189[0][0]']              
                                                                                                  
 dense_272 (Dense)              (None, 96, 64)       4160        ['layer_normalization_67[0][0]'] 
                                                                                                  
 multiply_69 (Multiply)         (None, 96, 64)       0           ['dense_270[0][0]',              
                                                                  'dense_271[0][0]']              
                                                                                                  
 dense_354 (Dense)              (None, 96, 64)       4160        ['layer_normalization_88[0][0]'] 
                                                                                                  
 multiply_90 (Multiply)         (None, 96, 64)       0           ['dense_352[0][0]',              
                                                                  'dense_353[0][0]']              
                                                                                                  
 dense_436 (Dense)              (None, 96, 64)       4160        ['layer_normalization_109[0][0]']
                                                                                                  
 multiply_111 (Multiply)        (None, 96, 64)       0           ['dense_434[0][0]',              
                                                                  'dense_435[0][0]']              
                                                                                                  
 dense_518 (Dense)              (None, 96, 64)       4160        ['layer_normalization_130[0][0]']
                                                                                                  
 multiply_132 (Multiply)        (None, 96, 64)       0           ['dense_516[0][0]',              
                                                                  'dense_517[0][0]']              
                                                                                                  
 add_27 (Add)                   (None, 96, 64)       0           ['dense_108[0][0]',              
                                                                  'multiply_27[0][0]']            
                                                                                                  
 add_48 (Add)                   (None, 96, 64)       0           ['dense_190[0][0]',              
                                                                  'multiply_48[0][0]']            
                                                                                                  
 add_69 (Add)                   (None, 96, 64)       0           ['dense_272[0][0]',              
                                                                  'multiply_69[0][0]']            
                                                                                                  
 add_90 (Add)                   (None, 96, 64)       0           ['dense_354[0][0]',              
                                                                  'multiply_90[0][0]']            
                                                                                                  
 add_111 (Add)                  (None, 96, 64)       0           ['dense_436[0][0]',              
                                                                  'multiply_111[0][0]']           
                                                                                                  
 add_132 (Add)                  (None, 96, 64)       0           ['dense_518[0][0]',              
                                                                  'multiply_132[0][0]']           
                                                                                                  
 layer_normalization_27 (LayerN  (None, 96, 64)      128         ['add_27[0][0]']                 
 ormalization)                                                                                    
                                                                                                  
 layer_normalization_48 (LayerN  (None, 96, 64)      128         ['add_48[0][0]']                 
 ormalization)                                                                                    
                                                                                                  
 layer_normalization_69 (LayerN  (None, 96, 64)      128         ['add_69[0][0]']                 
 ormalization)                                                                                    
                                                                                                  
 layer_normalization_90 (LayerN  (None, 96, 64)      128         ['add_90[0][0]']                 
 ormalization)                                                                                    
                                                                                                  
 layer_normalization_111 (Layer  (None, 96, 64)      128         ['add_111[0][0]']                
 Normalization)                                                                                   
                                                                                                  
 layer_normalization_132 (Layer  (None, 96, 64)      128         ['add_132[0][0]']                
 Normalization)                                                                                   
                                                                                                  
 bidirectional_8 (Bidirectional  [(None, 96, 32),    7872        ['layer_normalization_27[0][0]', 
 )                               (None, 16),                      'dense_102[0][0]',              
…
                                 (None, 16)]                      'dense_430[1][0]']              
                                                                                                  
 bidirectional_38 (Bidirectiona  [(None, 96, 32),    7872        ['layer_normalization_132[0][0]',
 l)                              (None, 16),                      'dense_512[0][0]',              
                                 (None, 16)]                      'dense_512[1][0]']              
                                                                                                  
 dropout_30 (Dropout)           (None, 96, 32)       0           ['bidirectional_8[0][0]']        
                                                                                                  
 dropout_52 (Dropout)           (None, 96, 32)       0           ['bidirectional_14[0][0]']       
                                                                                                  
 dropout_74 (Dropout)           (None, 96, 32)       0           ['bidirectional_20[0][0]']       
                                                                                                  
 dropout_96 (Dropout)           (None, 96, 32)       0           ['bidirectional_26[0][0]']       
                                                                                                  
 dropout_118 (Dropout)          (None, 96, 32)       0           ['bidirectional_32[0][0]']       
                                                                                                  
 dropout_140 (Dropout)          (None, 96, 32)       0           ['bidirectional_38[0][0]']       
                                                                                                  
 dense_109 (Dense)              (None, 96, 64)       2112        ['dropout_30[0][0]']             
                                                                                                  
 dense_110 (Dense)              (None, 96, 64)       2112        ['dropout_30[0][0]']             
                                                                                                  
 dense_191 (Dense)              (None, 96, 64)       2112        ['dropout_52[0][0]']             
                                                                                                  
 dense_192 (Dense)              (None, 96, 64)       2112        ['dropout_52[0][0]']             
                                                                                                  
 dense_273 (Dense)              (None, 96, 64)       2112        ['dropout_74[0][0]']             
                                                                                                  
 dense_274 (Dense)              (None, 96, 64)       2112        ['dropout_74[0][0]']             
                                                                                                  
 dense_355 (Dense)              (None, 96, 64)       2112        ['dropout_96[0][0]']             
                                                                                                  
 dense_356 (Dense)              (None, 96, 64)       2112        ['dropout_96[0][0]']             
                                                                                                  
 dense_437 (Dense)              (None, 96, 64)       2112        ['dropout_118[0][0]']            
                                                                                                  
 dense_438 (Dense)              (None, 96, 64)       2112        ['dropout_118[0][0]']            
                                                                                                  
 dense_519 (Dense)              (None, 96, 64)       2112        ['dropout_140[0][0]']            
                                                                                                  
 dense_520 (Dense)              (None, 96, 64)       2112        ['dropout_140[0][0]']            
                                                                                                  
 dense_111 (Dense)              (None, 96, 64)       4160        ['layer_normalization_25[0][0]'] 
                                                                                                  
 multiply_28 (Multiply)         (None, 96, 64)       0           ['dense_109[0][0]',              
                                                                  'dense_110[0][0]']              
                                                                                                  
 dense_193 (Dense)              (None, 96, 64)       4160        ['layer_normalization_46[0][0]'] 
                                                                                                  
 multiply_49 (Multiply)         (None, 96, 64)       0           ['dense_191[0][0]',              
                                                                  'dense_192[0][0]']              
                                                                                                  
 dense_275 (Dense)              (None, 96, 64)       4160        ['layer_normalization_67[0][0]'] 
                                                                                                  
 multiply_70 (Multiply)         (None, 96, 64)       0           ['dense_273[0][0]',              
                                                                  'dense_274[0][0]']              
                                                                                                  
 dense_357 (Dense)              (None, 96, 64)       4160        ['layer_normalization_88[0][0]'] 
                                                                                                  
 multiply_91 (Multiply)         (None, 96, 64)       0           ['dense_355[0][0]',              
                                                                  'dense_356[0][0]']              
                                                                                                  
 dense_439 (Dense)              (None, 96, 64)       4160        ['layer_normalization_109[0][0]']
                                                                                                  
 multiply_112 (Multiply)        (None, 96, 64)       0           ['dense_437[0][0]',              
                                                                  'dense_438[0][0]']              
                                                                                                  
 dense_521 (Dense)              (None, 96, 64)       4160        ['layer_normalization_130[0][0]']
                                                                                                  
 multiply_133 (Multiply)        (None, 96, 64)       0           ['dense_519[0][0]',              
                                                                  'dense_520[0][0]']              
                                                                                                  
 add_28 (Add)                   (None, 96, 64)       0           ['dense_111[0][0]',              
                                                                  'multiply_28[0][0]']            
                                                                                                  
 add_49 (Add)                   (None, 96, 64)       0           ['dense_193[0][0]',              
                                                                  'multiply_49[0][0]']            
                                                                                                  
 add_70 (Add)                   (None, 96, 64)       0           ['dense_275[0][0]',              
                                                                  'multiply_70[0][0]']            
                                                                                                  
 add_91 (Add)                   (None, 96, 64)       0           ['dense_357[0][0]',              
                                                                  'multiply_91[0][0]']            
                                                                                                  
 add_112 (Add)                  (None, 96, 64)       0           ['dense_439[0][0]',              
                                                                  'multiply_112[0][0]']           
                                                                                                  
 add_133 (Add)                  (None, 96, 64)       0           ['dense_521[0][0]',              
                                                                  'multiply_133[0][0]']           
                                                                                                  
 layer_normalization_28 (LayerN  (None, 96, 64)      128         ['add_28[0][0]']                 
 ormalization)                                                                                    
                                                                                                  
 layer_normalization_49 (LayerN  (None, 96, 64)      128         ['add_49[0][0]']                 
 ormalization)                                                                                    
                                                                                                  
 layer_normalization_70 (LayerN  (None, 96, 64)      128         ['add_70[0][0]']                 
 ormalization)                                                                                    
                                                                                                  
 layer_normalization_91 (LayerN  (None, 96, 64)      128         ['add_91[0][0]']                 
 ormalization)                                                                                    
                                                                                                  
 layer_normalization_112 (Layer  (None, 96, 64)      128         ['add_112[0][0]']                
 Normalization)                                                                                   
                                                                                                  
 layer_normalization_133 (Layer  (None, 96, 64)      128         ['add_133[0][0]']                
 Normalization)                                                                                   
                                                                                                  
 time_distributed_55 (TimeDistr  (None, 96, 64)      4160        ['layer_normalization_28[0][0]'] 
 ibuted)                                                                                          
                                                                                                  
 time_distributed_96 (TimeDistr  (None, 96, 64)      4160        ['layer_normalization_49[0][0]'] 
 ibuted)                                                                                          
                                                                                                  
 time_distributed_137 (TimeDist  (None, 96, 64)      4160        ['layer_normalization_70[0][0]'] 
 ributed)                                                                                         
                                                                                                  
 time_distributed_178 (TimeDist  (None, 96, 64)      4160        ['layer_normalization_91[0][0]'] 
 ributed)                                                                                         
                                                                                                  
 time_distributed_219 (TimeDist  (None, 96, 64)      4160        ['layer_normalization_112[0][0]']
 ributed)                                                                                         
                                                                                                  
 time_distributed_260 (TimeDist  (None, 96, 64)      4160        ['layer_normalization_133[0][0]']
 ributed)                                                                                         
                                                                                                  
 activation_11 (Activation)     (None, 96, 64)       0           ['time_distributed_55[0][0]']    
                                                                                                  
 activation_19 (Activation)     (None, 96, 64)       0           ['time_distributed_96[0][0]']    
                                                                                                  
 activation_27 (Activation)     (None, 96, 64)       0           ['time_distributed_137[0][0]']   
                                                                                                  
 activation_35 (Activation)     (None, 96, 64)       0           ['time_distributed_178[0][0]']   
                                                                                                  
 activation_43 (Activation)     (None, 96, 64)       0           ['time_distributed_219[0][0]']   
                                                                                                  
 activation_51 (Activation)     (None, 96, 64)       0           ['time_distributed_260[0][0]']   
                                                                                                  
 time_distributed_56 (TimeDistr  (None, 96, 64)      4160        ['activation_11[0][0]']          
 ibuted)                                                                                          
                                                                                                  
 time_distributed_97 (TimeDistr  (None, 96, 64)      4160        ['activation_19[0][0]']          
 ibuted)                                                                                          
                                                                                                  
 time_distributed_138 (TimeDist  (None, 96, 64)      4160        ['activation_27[0][0]']          
 ributed)                                                                                         
                                                                                                  
 time_distributed_179 (TimeDist  (None, 96, 64)      4160        ['activation_35[0][0]']          
 ributed)                                                                                         
                                                                                                  
 time_distributed_220 (TimeDist  (None, 96, 64)      4160        ['activation_43[0][0]']          
 ributed)                                                                                         
                                                                                                  
 time_distributed_261 (TimeDist  (None, 96, 64)      4160        ['activation_51[0][0]']          
 ributed)                                                                                         
                                                                                                  
 dropout_31 (Dropout)           (None, 96, 64)       0           ['time_distributed_56[0][0]']    
                                                                                                  
 dropout_53 (Dropout)           (None, 96, 64)       0           ['time_distributed_97[0][0]']    
                                                                                                  
 dropout_75 (Dropout)           (None, 96, 64)       0           ['time_distributed_138[0][0]']   
                                                                                                  
 dropout_97 (Dropout)           (None, 96, 64)       0           ['time_distributed_179[0][0]']   
                                                                                                  
 dropout_119 (Dropout)          (None, 96, 64)       0           ['time_distributed_220[0][0]']   
                                                                                                  
 dropout_141 (Dropout)          (None, 96, 64)       0           ['time_distributed_261[0][0]']   
                                                                                                  
 time_distributed_57 (TimeDistr  (None, 96, 64)      4160        ['dropout_31[0][0]']             
 ibuted)                                                                                          
                                                                                                  
 time_distributed_58 (TimeDistr  (None, 96, 64)      4160        ['dropout_31[0][0]']             
 ibuted)                                                                                          
                                                                                                  
 time_distributed_98 (TimeDistr  (None, 96, 64)      4160        ['dropout_53[0][0]']             
 ibuted)                                                                                          
                                                                                                  
 time_distributed_99 (TimeDistr  (None, 96, 64)      4160        ['dropout_53[0][0]']             
 ibuted)                                                                                          
                                                                                                  
 time_distributed_139 (TimeDist  (None, 96, 64)      4160        ['dropout_75[0][0]']             
 ributed)                                                                                         
                                                                                                  
 time_distributed_140 (TimeDist  (None, 96, 64)      4160        ['dropout_75[0][0]']             
 ributed)                                                                                         
                                                                                                  
 time_distributed_180 (TimeDist  (None, 96, 64)      4160        ['dropout_97[0][0]']             
 ributed)                                                                                         
                                                                                                  
 time_distributed_181 (TimeDist  (None, 96, 64)      4160        ['dropout_97[0][0]']             
 ributed)                                                                                         
                                                                                                  
 time_distributed_221 (TimeDist  (None, 96, 64)      4160        ['dropout_119[0][0]']            
 ributed)                                                                                         
                                                                                                  
 time_distributed_222 (TimeDist  (None, 96, 64)      4160        ['dropout_119[0][0]']            
 ributed)                                                                                         
                                                                                                  
 time_distributed_262 (TimeDist  (None, 96, 64)      4160        ['dropout_141[0][0]']            
 ributed)                                                                                         
                                                                                                  
 time_distributed_263 (TimeDist  (None, 96, 64)      4160        ['dropout_141[0][0]']            
 ributed)                                                                                         
                                                                                                  
 time_distributed_59 (TimeDistr  (None, 96, 64)      4160        ['layer_normalization_28[0][0]'] 
 ibuted)                                                                                          
                                                                                                  
 multiply_29 (Multiply)         (None, 96, 64)       0           ['time_distributed_57[0][0]',    
                                                                  'time_distributed_58[0][0]']    
                                                                                                  
 time_distributed_100 (TimeDist  (None, 96, 64)      4160        ['layer_normalization_49[0][0]'] 
 ributed)                                                                                         
                                                                                                  
 multiply_50 (Multiply)         (None, 96, 64)       0           ['time_distributed_98[0][0]',    
                                                                  'time_distributed_99[0][0]']    
                                                                                                  
 time_distributed_141 (TimeDist  (None, 96, 64)      4160        ['layer_normalization_70[0][0]'] 
 ributed)                                                                                         
                                                                                                  
 multiply_71 (Multiply)         (None, 96, 64)       0           ['time_distributed_139[0][0]',   
                                                                  'time_distributed_140[0][0]']   
                                                                                                  
 time_distributed_182 (TimeDist  (None, 96, 64)      4160        ['layer_normalization_91[0][0]'] 
 ributed)                                                                                         
                                                                                                  
 multiply_92 (Multiply)         (None, 96, 64)       0           ['time_distributed_180[0][0]',   
                                                                  'time_distributed_181[0][0]']   
                                                                                                  
 time_distributed_223 (TimeDist  (None, 96, 64)      4160        ['layer_normalization_112[0][0]']
 ributed)                                                                                         
                                                                                                  
 multiply_113 (Multiply)        (None, 96, 64)       0           ['time_distributed_221[0][0]',   
                                                                  'time_distributed_222[0][0]']   
                                                                                                  
 time_distributed_264 (TimeDist  (None, 96, 64)      4160        ['layer_normalization_133[0][0]']
 ributed)                                                                                         
                                                                                                  
 multiply_134 (Multiply)        (None, 96, 64)       0           ['time_distributed_262[0][0]',   
                                                                  'time_distributed_263[0][0]']   
                                                                                                  
 add_29 (Add)                   (None, 96, 64)       0           ['time_distributed_59[0][0]',    
                                                                  'multiply_29[0][0]']            
                                                                                                  
 add_50 (Add)                   (None, 96, 64)       0           ['time_distributed_100[0][0]',   
                                                                  'multiply_50[0][0]']            
                                                                                                  
 add_71 (Add)                   (None, 96, 64)       0           ['time_distributed_141[0][0]',   
                                                                  'multiply_71[0][0]']            
                                                                                                  
 add_92 (Add)                   (None, 96, 64)       0           ['time_distributed_182[0][0]',   
                                                                  'multiply_92[0][0]']            
                                                                                                  
 add_113 (Add)                  (None, 96, 64)       0           ['time_distributed_223[0][0]',   
                                                                  'multiply_113[0][0]']           
                                                                                                  
 add_134 (Add)                  (None, 96, 64)       0           ['time_distributed_264[0][0]',   
                                                                  'multiply_134[0][0]']           
                                                                                                  
 layer_normalization_29 (LayerN  (None, 96, 64)      128         ['add_29[0][0]']                 
 ormalization)                                                                                    
                                                                                                  
 layer_normalization_50 (LayerN  (None, 96, 64)      128         ['add_50[0][0]']                 
 ormalization)                                                                                    
                                                                                                  
 layer_normalization_71 (LayerN  (None, 96, 64)      128         ['add_71[0][0]']                 
 ormalization)                                                                                    
                                                                                                  
 layer_normalization_92 (LayerN  (None, 96, 64)      128         ['add_92[0][0]']                 
 ormalization)                                                                                    
                                                                                                  
 layer_normalization_113 (Layer  (None, 96, 64)      128         ['add_113[0][0]']                
 Normalization)                                                                                   
                                                                                                  
 layer_normalization_134 (Layer  (None, 96, 64)      128         ['add_134[0][0]']                
 Normalization)                                                                                   
                                                                                                  
 dropout_32 (Dropout)           (None, 96, 64)       0           ['layer_normalization_29[0][0]'] 
                                                                                                  
 dropout_54 (Dropout)           (None, 96, 64)       0           ['layer_normalization_50[0][0]'] 
                                                                                                  
 dropout_76 (Dropout)           (None, 96, 64)       0           ['layer_normalization_71[0][0]'] 
                                                                                                  
 dropout_98 (Dropout)           (None, 96, 64)       0           ['layer_normalization_92[0][0]'] 
                                                                                                  
 dropout_120 (Dropout)          (None, 96, 64)       0           ['layer_normalization_113[0][0]']
                                                                                                  
 dropout_142 (Dropout)          (None, 96, 64)       0           ['layer_normalization_134[0][0]']
                                                                                                  
 dense_117 (Dense)              (None, 96, 64)       4160        ['dropout_32[0][0]']             
                                                                                                  
 dense_118 (Dense)              (None, 96, 64)       4160        ['dropout_32[0][0]']             
                                                                                                  
 dense_199 (Dense)              (None, 96, 64)       4160        ['dropout_54[0][0]']             
                                                                                                  
 dense_200 (Dense)              (None, 96, 64)       4160        ['dropout_54[0][0]']             
                                                                                                  
 dense_281 (Dense)              (None, 96, 64)       4160        ['dropout_76[0][0]']             
                                                                                                  
 dense_282 (Dense)              (None, 96, 64)       4160        ['dropout_76[0][0]']             
                                                                                                  
 dense_363 (Dense)              (None, 96, 64)       4160        ['dropout_98[0][0]']             
                                                                                                  
 dense_364 (Dense)              (None, 96, 64)       4160        ['dropout_98[0][0]']             
                                                                                                  
 dense_445 (Dense)              (None, 96, 64)       4160        ['dropout_120[0][0]']            
                                                                                                  
 dense_446 (Dense)              (None, 96, 64)       4160        ['dropout_120[0][0]']            
                                                                                                  
 dense_527 (Dense)              (None, 96, 64)       4160        ['dropout_142[0][0]']            
                                                                                                  
 dense_528 (Dense)              (None, 96, 64)       4160        ['dropout_142[0][0]']            
                                                                                                  
 dense_119 (Dense)              (None, 96, 64)       4160        ['layer_normalization_23[0][0]'] 
                                                                                                  
 multiply_30 (Multiply)         (None, 96, 64)       0           ['dense_117[0][0]',              
                                                                  'dense_118[0][0]']              
                                                                                                  
 dense_201 (Dense)              (None, 96, 64)       4160        ['layer_normalization_44[0][0]'] 
                                                                                                  
 multiply_51 (Multiply)         (None, 96, 64)       0           ['dense_199[0][0]',              
                                                                  'dense_200[0][0]']              
                                                                                                  
 dense_283 (Dense)              (None, 96, 64)       4160        ['layer_normalization_65[0][0]'] 
                                                                                                  
 multiply_72 (Multiply)         (None, 96, 64)       0           ['dense_281[0][0]',              
                                                                  'dense_282[0][0]']              
                                                                                                  
 dense_365 (Dense)              (None, 96, 64)       4160        ['layer_normalization_86[0][0]'] 
                                                                                                  
 multiply_93 (Multiply)         (None, 96, 64)       0           ['dense_363[0][0]',              
                                                                  'dense_364[0][0]']              
                                                                                                  
 dense_447 (Dense)              (None, 96, 64)       4160        ['layer_normalization_107[0][0]']
                                                                                                  
 multiply_114 (Multiply)        (None, 96, 64)       0           ['dense_445[0][0]',              
                                                                  'dense_446[0][0]']              
                                                                                                  
 dense_529 (Dense)              (None, 96, 64)       4160        ['layer_normalization_128[0][0]']
                                                                                                  
 multiply_135 (Multiply)        (None, 96, 64)       0           ['dense_527[0][0]',              
                                                                  'dense_528[0][0]']              
                                                                                                  
 add_30 (Add)                   (None, 96, 64)       0           ['dense_119[0][0]',              
                                                                  'multiply_30[0][0]']            
                                                                                                  
 add_51 (Add)                   (None, 96, 64)       0           ['dense_201[0][0]',              
                                                                  'multiply_51[0][0]']            
                                                                                                  
 add_72 (Add)                   (None, 96, 64)       0           ['dense_283[0][0]',              
                                                                  'multiply_72[0][0]']            
                                                                                                  
 add_93 (Add)                   (None, 96, 64)       0           ['dense_365[0][0]',              
                                                                  'multiply_93[0][0]']            
                                                                                                  
 add_114 (Add)                  (None, 96, 64)       0           ['dense_447[0][0]',              
                                                                  'multiply_114[0][0]']           
                                                                                                  
 add_135 (Add)                  (None, 96, 64)       0           ['dense_529[0][0]',              
                                                                  'multiply_135[0][0]']           
                                                                                                  
 layer_normalization_30 (LayerN  (None, 96, 64)      128         ['add_30[0][0]']                 
 ormalization)                                                                                    
                                                                                                  
 layer_normalization_51 (LayerN  (None, 96, 64)      128         ['add_51[0][0]']                 
 ormalization)                                                                                    
                                                                                                  
 layer_normalization_72 (LayerN  (None, 96, 64)      128         ['add_72[0][0]']                 
 ormalization)                                                                                    
                                                                                                  
 layer_normalization_93 (LayerN  (None, 96, 64)      128         ['add_93[0][0]']                 
 ormalization)                                                                                    
                                                                                                  
 layer_normalization_114 (Layer  (None, 96, 64)      128         ['add_114[0][0]']                
 Normalization)                                                                                   
                                                                                                  
 layer_normalization_135 (Layer  (None, 96, 64)      128         ['add_135[0][0]']                
 Normalization)                                                                                   
                                                                                                  
 time_distributed_60 (TimeDistr  (None, 96, 1)       65          ['layer_normalization_30[0][0]'] 
 ibuted)                                                                                          
                                                                                                  
 time_distributed_101 (TimeDist  (None, 96, 1)       65          ['layer_normalization_51[0][0]'] 
 ributed)                                                                                         
                                                                                                  
 time_distributed_142 (TimeDist  (None, 96, 1)       65          ['layer_normalization_72[0][0]'] 
 ributed)                                                                                         
                                                                                                  
 time_distributed_183 (TimeDist  (None, 96, 1)       65          ['layer_normalization_93[0][0]'] 
 ributed)                                                                                         
                                                                                                  
 time_distributed_224 (TimeDist  (None, 96, 1)       65          ['layer_normalization_114[0][0]']
 ributed)                                                                                         
                                                                                                  
 time_distributed_265 (TimeDist  (None, 96, 1)       65          ['layer_normalization_135[0][0]']
 ributed)                                                                                         
                                                                                                  
 concatenate_6 (Concatenate)    (None, 96, 6)        0           ['time_distributed_60[0][0]',    
                                                                  'time_distributed_101[0][0]',   
                                                                  'time_distributed_142[0][0]',   
                                                                  'time_distributed_183[0][0]',   
                                                                  'time_distributed_224[0][0]',   
                                                                  'time_distributed_265[0][0]']   
                                                                                                  
 dense_531 (Dense)              (None, 96, 3)        21          ['concatenate_6[0][0]']          
                                                                                                  
 dense_532 (Dense)              (None, 96, 1)        4           ['dense_531[0][0]']              
                                                                                                  
 dense_533 (Dense)              (None, 96, 7)        14          ['dense_532[0][0]']              
                                                                                                  
 reshape (Reshape)              (None, 96, 1, 7)     0           ['dense_533[0][0]']              
                                                                                                  
==================================================================================================
Total params: 4,812,005
Trainable params: 4,812,005
Non-trainable params: 0
__________________________________________________________________________________________________
